wyoming/oww-models/hey_mava.tflite (tflite, 206964 bytes, 9 tensors)

arith.constant f4 [1, 32]
0	0xbeb09204	-0.344864
1	0x3e4c31b5	0.19940837
2	0xbadce2f3	-0.0016852304
3	0x3e3963f4	0.18104535
4	0x3e12aaea	0.14323011
5	0xbd31f311	-0.043444697
6	0x3dabd63b	0.083904706
7	0x3da423dd	0.08014653
8	0x3e88dfab	0.26733145
9	0x3e2e0fcb	0.16998212
10	0xbd024f09	-0.031813655
11	0xbea1f304	-0.3163072
12	0xbd8f3460	-0.069924116
13	0x3df30780	0.11866665
14	0xbd824a0b	-0.06361779
15	0xbebdf3a6	-0.37099952
16	0x3daf1645	0.085491695
17	0xbeaa4fdc	-0.33264053
18	0xbeb0ccb7	-0.34531185
19	0xbeaff9eb	-0.3437036
20	0x3b943acf	0.004523612
21	0x3cecf32f	0.028924553
22	0xbe289ec1	-0.1646681
23	0xbd30e7ac	-0.04318969
24	0xbeb9357a	-0.36173612
25	0x3e0de39f	0.13856362
26	0x3e42f663	0.19039302
27	0xbe9c9968	-0.3058579
28	0xbeb3dcc7	-0.35129377
29	0xbd4507d7	-0.04810318
30	0xbeafc272	-0.34328038
31	0x3d6e472b	0.05817334

arith.constant1 f4 [32, 32]
0	0x3cf8a4c5	0.030352006
1	0x3b8ad441	0.0042367284
2	0x3de8df48	0.113707125
3	0xbc639b05	-0.01389194
4	0xbdb377eb	-0.08763107
5	0x3ddb0f91	0.106963284
6	0x3caa3dd2	0.020781431
7	0x3da10d37	0.07863849
8	0x3da9536b	0.08267864
9	0xbd90448f	-0.070443265
10	0x3d20515b	0.039140087
11	0x3e1bb641	0.15206243
12	0x3e0efeea	0.1396443
13	0xbd91b8d2	-0.0711533
14	0xbde427de	-0.111404166
15	0xbdabc23c	-0.08386657
16	0xbba55682	-0.005045713
17	0x3e0fc1ea	0.14038816
18	0x3d647936	0.05577966
19	0x3e320359	0.1738409
20	0x3e2c2352	0.16810349
21	0xbd58ee53	-0.05296166
22	0xbd3d14b3	-0.04616232
23	0x3d99f8d6	0.07518165
24	0x3d8d1ed9	0.06890649
25	0x3c5be5a3	0.013421449
26	0x3d8f59b8	0.06999534
27	0x3d0060b8	0.03134224
28	0x3dfe3bec	0.12413773
29	0x3d9dab43	0.07698681
30	0xbe105d7f	-0.14098166
31	0xbbc6ee52	-0.0060708905
32	0x3da6242d	0.08112369
33	0xbd8c4334	-0.068487555
34	0xbdf9c53f	-0.12195825
35	0xbdb73486	-0.08945565
36	0x3e3e3183	0.18573575
37	0xbde08888	-0.10963541
38	0xbd9e4848	-0.0772863
39	0xbe0fe1ff	-0.14051054
40	0xbdb3db2f	-0.0878204
41	0xbdaa1259	-0.08304281
42	0x3dcf8939	0.10133595
43	0xbe225015	-0.15850861
44	0x3d08ab13	0.033366274
45	0x3e0c31ab	0.13690822
46	0xbd7b6ec5	-0.061384935
47	0xbcca284c	-0.024677418
48	0xbe27e40f	-0.16395591
49	0x3e2d627d	0.16932102
50	0x3d276639	0.04086897
51	0x3e0bea75	0.13663657
52	0x3df8369f	0.12119793
53	0x3e093be8	0.13401759
54	0x3d915569	0.07096369
55	0x3ccffac1	0.025388123
56	0xbe0d43d4	-0.13795406
57	0x3d88b559	0.06675214
58	0xbe3d050c	-0.18458956
59	0x3da28df0	0.07937229
60	0x3e32b891	0.17453219
61	0x3dc80717	0.09766977
62	0xbac651e4	-0.0015130606
63	0x3ddf299a	0.10896607
64	0x3e212151	0.15735365
65	0x3e2469a7	0.16055928
66	0xbdd72e8c	-0.10506925
67	0xbe262d08	-0.16228116
68	0xbe02b31a	-0.12763634
69	0xbd6703f1	-0.056400243
70	0x3dfe155c	0.12406418
71	0xbdc9f6d8	-0.09861535
72	0x3e1ed855	0.15512212
73	0x3e1aea32	0.15128401
74	0xbdca323d	-0.098728634
75	0xbd0a8571	-0.033818666
76	0xbe10220e	-0.14075491
77	0x3e095707	0.13412105
78	0x3e3ef223	0.18647055
79	0x3cd2c2cb	0.02572765
80	0xbe06fc75	-0.13182242
81	0xbd820993	-0.063494824
82	0x3b9a6ea2	0.0047128955
83	0xbe0de1dc	-0.1385569
84	0x3d8d58de	0.06901716
85	0x3dd16b26	0.10225515
86	0x3d421d6b	0.047391336
87	0xbe1e70d9	-0.15472735
88	0xbe1207f7	-0.14260851
89	0x3df46681	0.119336136
90	0xbdb574b3	-0.08860149
91	0xbdb1578a	-0.08659275
92	0x3ddbd928	0.10734779
93	0x3de5ed91	0.11226953
94	0xbe1c3c8c	-0.15257472
95	0x3cab58e9	0.02091642
96	0xbe095572	-0.13411501
97	0xbdfb0050	-0.12255919
98	0xbde0a7ce	-0.10969506
99	0x3e145d85	0.144888
100	0xbdfc6460	-0.123238325
101	0xbd70872a	-0.058722652
102	0xbe0e72f9	-0.13911046
103	0x3a9c341c	0.0011917385
104	0xbe15cd51	-0.14629103
105	0xbde8119e	-0.11331485
106	0x3e16ccec	0.14726609
107	0x3dee2a78	0.11629194
108	0xbe1a6f68	-0.1508156
109	0x3e3f4b47	0.1868106
110	0xbddcb750	-0.107771516
111	0x3e3e4c8b	0.18583886
112	0x3df8afbe	0.12142895
113	0x3e24bf60	0.16088629
114	0xbd51f818	-0.05126199
115	0xbde1bb1e	-0.11022018
116	0x3da87633	0.0822567
117	0x3e0578d3	0.13034372
118	0xbda3a666	-0.07990722
119	0xbe069407	-0.13142405
120	0xbe04006c	-0.12890786
121	0x3e0f7e02	0.14012912
122	0xbb74cbc3	-0.0037352897
123	0x3cbda954	0.023152031
124	0xbde8f0d8	-0.11374062
125	0x3e07e713	0.13271742
126	0x3de1e4cb	0.11029967
127	0x3baae413	0.005215177
128	0xbe28e48b	-0.16493432
129	0xbddc6bf7	-0.1076278
130	0x3e4b4c7f	0.198534
131	0x3d1ca088	0.038239032
132	0x3df431a5	0.119235314
133	0x3e010c8d	0.12602444
134	0x3d827c92	0.06371416
135	0xbdb65a37	-0.08903926
136	0x3d92718b	0.07150563
137	0xbd5f0533	-0.054448318
138	0x3d328ab8	0.043589324
139	0xbadc944b	-0.0016828863
140	0xbde79654	-0.1130797
141	0x3d6b79f3	0.057489347
142	0x3d25532e	0.04036253
143	0x3e581c69	0.21104588
144	0x3df7c1a7	0.12097483
145	0x3dc83983	0.097765945
146	0xbdeb4c35	-0.11489145
147	0x3cdcec44	0.026968129
148	0x3dbf7c07	0.09349828
149	0xbcd9556f	-0.026529996
150	0x3d8231d4	0.0635716
151	0x3d18595c	0.037194595
152	0xbe2c95b9	-0.1685399
153	0xbe0b0e3b	-0.13579647
154	0x3cdf66d5	0.027270714
155	0xbe2a09a4	-0.1660524
156	0xbcf26aeb	-0.029591998
157	0xbdd82c9e	-0.10555385
158	0x3da54312	0.08069433
159	0x3e122175	0.14270575
160	0xbe2535a4	-0.16133744
161	0xbd2e4ec0	-0.04255557
162	0xbb532aa4	-0.003222146
163	0x3c9f7b98	0.019468114
164	0xbca87a40	-0.020566106
165	0xbd854f73	-0.06509294
166	0xbdbb3764	-0.09141424
167	0xbc96e483	-0.01841951
168	0x3e02cccf	0.12773441
169	0x3e002e59	0.1251768
170	0xbce9b951	-0.028530749
171	0xbd635187	-0.055497672
172	0x3db29ff3	0.08721914
173	0xbdf50eeb	-0.11965736
174	0xbce20a43	-0.027592784
175	0x3d10861e	0.035284154
176	0x3d09ab77	0.033610787
177	0xba97cdc0	-0.0011581704
178	0x3d398a9c	0.045298204
179	0x3e0e025c	0.13868088
180	0xbd40cdf4	-0.047071412
181	0x3e093399	0.13398589
182	0xbd40f2cd	-0.047106553
183	0xbe0b06a4	-0.13576752
184	0xbe1361c4	-0.14392763
185	0xbdeb07b7	-0.11476081
186	0x3d0f4270	0.03497547
187	0x3dfa492a	0.12220986
188	0xbe2b94be	-0.1675596
189	0x3db26252	0.08710159
190	0x3cadb873	0.021206116
191	0xbd9fd802	-0.07804872
192	0xbdcb02ef	-0.09912669
193	0xbd5f7361	-0.054553393
194	0x3dc4f9ba	0.09617944
195	0x3e33e8b8	0.17569244
196	0x3dfe8527	0.124277405
197	0x3c587704	0.013211969
198	0x3db8a6a1	0.09016157
199	0x3e1d888c	0.1538412
200	0xbe282ce9	-0.16423382
201	0xbde8d20e	-0.1136819
202	0x3bd348e4	0.006447898
203	0xbe05d8aa	-0.13070932
204	0x3db9d4fe	0.09073828
205	0xbe13a04e	-0.1441662
206	0x3de9b8f5	0.11412231
207	0xbdaf5e76	-0.08562939
208	0x3d1c66d2	0.038183995
209	0xbd7c08cc	-0.061531827
210	0x3e01f06b	0.12689368
211	0x3cb51283	0.022103554
212	0xbbffe4e4	-0.0078092683
213	0x3dad4916	0.08461206
214	0xbd9c49b3	-0.076312445
215	0xbe34a5b5	-0.17641337
216	0xbbfffdd8	-0.007812243
217	0x3e16e170	0.14734435
218	0xbda31b99	-0.07964248
219	0x3df177f5	0.11790458
220	0xba98fe66	-0.0011672496
221	0xbdec7bd5	-0.115470566
222	0x3da4d857	0.08049076
223	0x3d7b9bd9	0.061427925
224	0x3dc9c8bf	0.098527424
225	0x3a618acb	0.00086037506
226	0x3d900c56	0.07033603
227	0x3db3efa0	0.08785939
228	0x3e26f81a	0.1630558
229	0xbc9ba1cb	-0.018998047
230	0xba87a4b3	-0.0010348767
231	0x3c7c960e	0.015416635
232	0xbd48fe7d	-0.049070824
233	0xbd97d8b7	-0.07414382
234	0x3e11d99e	0.1424317
235	0xbe33d4ce	-0.17561647
236	0xbd29e7cb	-0.04148082
237	0x3dd0fb2b	0.102041565
238	0xbe3e686b	-0.1859452
239	0x3e27aaaa	0.16373697
240	0xbc38d621	-0.011281521
241	0x3d806047	0.062683634
242	0xbdea36dd	-0.114362456
243	0xbd854907	-0.065080695
244	0x3e0e792d	0.13913412
245	0x3cbfd029	0.023414688
246	0x3c8f3a48	0.017483845
247	0xbe3078fd	-0.17233653
248	0x3dc2bd64	0.0950878
249	0x3d38f96f	0.045159753
250	0xbc028b27	-0.007967747
251	0xbcbc9169	-0.023018556
252	0xbd1e5d37	-0.038663115
253	0xbd875daf	-0.066096656
254	0x3d555d12	0.052090712
255	0xbe048ada	-0.12943593

arith.constant2 f4 [32, 1536]
0	0xbbe66c24	-0.0070319343
1	0xbc7570c1	-0.014980496
2	0x39616a42	0.00021497256
3	0xbc9e512c	-0.019325815
4	0x3ce5ce4a	0.028052468
5	0xbcc0d799	-0.023540305
6	0x3a4458c1	0.0007490032
7	0xbc84fa4d	-0.016232634
8	0xbc4fb26e	-0.012676818
9	0x3c5da64d	0.013528419
10	0x3bf6cf69	0.0075320494
11	0xbcac4e89	-0.021033542
12	0x3b242fc8	0.0025052894
13	0xbc917a04	-0.017758377
14	0xbbcd2d54	-0.006261507
15	0xbd13035b	-0.035891872
16	0x3a0efe71	0.0005454785
17	0xbc44e701	-0.012017966
18	0x3b68098a	0.0035406076
19	0x3cb22db7	0.021750314
20	0x3c9c683d	0.019092673
21	0xbaa8c09d	-0.0012874786
22	0x3ca583b6	0.020204406
23	0xba5d41f8	-0.0008440311
24	0x3bf74267	0.0075457576
25	0xbc25d5f3	-0.01012181
26	0x3cb3aea0	0.021933854
27	0xbbeb2a57	-0.007176678
28	0x3ba31318	0.0049766414
29	0x3c233491	0.009961263
30	0xbb6e91c3	-0.0036402799
31	0x3cf32595	0.029681006
32	0x3c775edb	0.015098299
33	0xbcb7517f	-0.022377728
34	0x3c0a5d29	0.008445063
35	0xbc49e5de	-0.012322871
36	0x3c6a5cec	0.014304381
37	0xbc534a07	-0.012896067
38	0xbca0aa40	-0.019612432
39	0xbc7518c2	-0.014959516
40	0xbc217150	-0.009853676
41	0xbc003956	-0.00782617
42	0xbba6dc72	-0.005092197
43	0x3c064ed6	0.008197507
44	0xbbd02b99	-0.0063528535
45	0x3a0775ac	0.0005167376
46	0xbbfd97e8	-0.007739056
47	0xbbea5d7f	-0.007152259
48	0x3b2233e7	0.0024750174
49	0x3c8b292f	0.016987411
50	0xbc5f296a	-0.013620714
51	0xbcfdf084	-0.030998476
52	0x3c3e5779	0.011617535
53	0x3cb39b9b	0.021924784
54	0x3cd79ce5	0.02631993
55	0xbc95995a	-0.0182616
56	0x3bf19885	0.007372918
57	0x3bad2785	0.005284252
58	0x3b08a028	0.0020847414
59	0xbc5b170d	-0.013372195
60	0xbbbcaabd	-0.0057576583
61	0x3c0edb19	0.008719229
62	0x3d1c0fee	0.03810113
63	0xbcbaac48	-0.022787228
64	0xbb9433a0	-0.0045227557
65	0xbc94af13	-0.018149888
66	0xbb71f300	-0.003691852
67	0x3c98ad4e	0.018637326
68	0xbc8e9b4b	-0.017408034
69	0xbc84a173	-0.016190266
70	0xbd14408b	-0.036194365
71	0x3bd13bb1	0.0063852896
72	0x3cb1f033	0.021720981
73	0x3cbc6a9e	0.023000058
74	0xbcdf9550	-0.027292877
75	0x3c2e1ffe	0.010627745
76	0x3cc10b67	0.023565007
77	0x3c82c313	0.01596216
78	0xbc00581d	-0.007833508
79	0x3be66299	0.0070307967
80	0xbcab0812	-0.020877872
81	0x3c47cbd9	0.012194597
82	0x3c183396	0.009289643
83	0x3b9bd6b4	0.004755819
84	0x3bc32b87	0.0059561166
85	0xbc82066e	-0.015872207
86	0x3c294b62	0.010332914
87	0xbc842d9a	-0.016135026
88	0xbcec132f	-0.028817741
89	0x3b8a59aa	0.0042221146
90	0x3c9c5b3e	0.019086476
91	0xbad90a67	-0.0016558886
92	0x3c41b27e	0.011822341
93	0xbc6645fc	-0.0140547715
94	0x3c9e8cc6	0.019354235
95	0xbc878f47	-0.016547812
96	0x38bdfd6f	9.059428e-05
97	0xbca211ae	-0.019783821
98	0xbcacbb2c	-0.021085344
99	0xbcb1a068	-0.021682933
100	0x3b838d72	0.0040146643
101	0x3c2cf2c8	0.01055593
102	0x3cbe4a15	0.023228684
103	0x3b912a22	0.0044300715
104	0xbb6f5079	-0.0036516471
105	0xbbf827dd	-0.0075731114
106	0xbca55603	-0.020182615
107	0x3b4e9438	0.003152145
108	0x3ae762e1	0.001765337
109	0xba490766	-0.0007668644
110	0xbb33372f	-0.0027346124
111	0xbd354d6e	-0.044263296
112	0xbd462b0b	-0.048380893
113	0x3c987d3c	0.018614404
114	0x3becf284	0.0072310586
115	0x3c429b97	0.011877916
116	0x3b2308dc	0.0024877107
117	0xbaaeea6c	-0.001334501
118	0x3ce5e146	0.02806152
119	0xbcad965b	-0.02118986
120	0x3c4de341	0.012566389
121	0x3c853290	0.016259462
122	0xbc4d6f9b	-0.012538816
123	0xbba0a108	-0.004902009
124	0xbc595820	-0.01326564
125	0x3c372bf5	0.011179914
126	0xbc8253dc	-0.015909128
127	0x3cde32a1	0.027123751
128	0xbcbb085b	-0.022831133
129	0xb9fe0ee2	-0.00048457744
130	0x3c2fdc74	0.010733712
131	0x3a05e3c0	0.0005107485
132	0x3a3d184e	0.00072133995
133	0xbcd0fa5b	-0.025510004
134	0x3c7b232c	0.01532821
135	0xbcc9bc23	-0.024625843
136	0xbc821450	-0.015878826
137	0xbc3651d9	-0.011127912
138	0x3c42bf07	0.011886365
139	0xbc792ff4	-0.015209187
140	0xbc9d2a87	-0.019185318
141	0x3c6c45fa	0.014420981
142	0x3cb5d3c9	0.022195714
143	0xbb57ae88	-0.0032910425
144	0xbc47ada8	-0.012187399
145	0x3d556e60	0.052107215
146	0x3ca38614	0.019961394
147	0xbba18c0f	-0.0049300264
148	0x3cb2c862	0.021824066
149	0xbcc57ada	-0.024106432
150	0x3ac8e48c	0.0015326901
151	0x3bb927b3	0.0056504845
152	0x3be86938	0.007092621
153	0xbc33db45	-0.010977571
154	0xbba024c0	-0.0048871934
155	0xbcc25369	-0.023721414
156	0x3c17ced7	0.009265623
157	0x3c6397ed	0.013891202
158	0x3d21e24e	0.03952246
159	0xbca73fe4	-0.020416208
160	0x39f68aea	0.00047024275
161	0x3c42ffc0	0.011901796
162	0x3cd0c2cd	0.025483513
163	0x3a49a4bd	0.00076920894
164	0x3c5f7c1a	0.013640428
165	0xbb8c317f	-0.0042783613
166	0x3c0bc06f	0.008529766
167	0xbbd026e0	-0.0063522905
168	0x3c5d33e9	0.013501146
169	0x3ce93b83	0.02847076
170	0xbcc6c59e	-0.024264153
171	0x3c9752d7	0.018472118
172	0x3d1b5426	0.037922047
173	0xbcb34513	-0.021883523
174	0xbc3d024b	-0.011536191
175	0x3c174658	0.00923308
176	0x3cc1d2ed	0.023660148
177	0x3b615a3d	0.0034386062
178	0xbcd5e88d	-0.026111865
179	0x3c3b827f	0.011444687
180	0xbc67d2ef	-0.014149412
181	0xbc56096a	-0.013063768
182	0xbca88d14	-0.020575084
183	0xbcd18200	-0.025574684
184	0x3b2caf05	0.0026349437
185	0xbc10a711	-0.008828894
186	0x3cdef1e4	0.027214952
187	0x3c432b54	0.011912186
188	0xbc83f75a	-0.016109157
189	0x3c2bc636	0.010484269
190	0x3ac6c6d5	0.0015165458
191	0x3c90e932	0.017689321
192	0x3c96d944	0.018414147
193	0xbbd094ae	-0.0063653802
194	0x3cdf3826	0.027248453
195	0xbcfa4660	-0.030551136
196	0x3cc1c9ef	0.02365586
197	0xbcdc401d	-0.02688604
198	0x3ccb7688	0.024836794
199	0xbceaf853	-0.028682863
200	0xbcc27d98	-0.023741528
201	0x3cc1bad6	0.02364866
202	0x3c9989d2	0.018742476
203	0xbc142ea3	-0.009044322
204	0xbb8c0374	-0.0042728726
205	0xba3c3b56	-0.00071804726
206	0x3c036f4d	0.008022142
207	0x3c0d136a	0.008610586
208	0xbd4732e2	-0.04863251
209	0x3c2a4a14	0.010393638
210	0xbcb101b6	-0.021607261
211	0x3cd6c5f2	0.026217435
212	0xbc36c11a	-0.011154437
213	0xbc32b9e2	-0.010908576
214	0x3c617799	0.013761424
215	0xbaa550d5	-0.0012612591
216	0xbcae2dca	-0.021262068
217	0xbcab02ad	-0.0208753
218	0x3bdd5d0d	0.0067554773
219	0x3b053e91	0.0020331482
220	0xbc1ad6a4	-0.009450588
221	0x3c809fbe	0.015701171
222	0x3cba32a8	0.022729233
223	0xbc10f0ab	-0.008846442
224	0x3ca36ced	0.0199494
225	0xbca14e80	-0.019690752
226	0xbc1ba836	-0.009500554
227	0xbc793815	-0.015211125
228	0xbcba812f	-0.022766678
229	0xbc241c6a	-0.01001654
230	0x3c3a5787	0.011373407
231	0x3c5bf2ae	0.013424559
232	0xbc1ab830	-0.009443328
233	0xbc182e31	-0.009288357
234	0xbab670f4	-0.0013919161
235	0x3c682849	0.014169761
236	0x3a460f7b	0.00075554074
237	0xbc6aa185	-0.014320736
238	0xbcd2f1b9	-0.025750028
239	0xbc15b70b	-0.009137879
240	0xbce163c3	-0.02751339
241	0x3c458fee	0.012058241
242	0x3bc3ed58	0.0059792213
243	0x3c87f938	0.016598329
244	0xbccbfda1	-0.024901213
245	0xbc4777b6	-0.012174537
246	0x39e478e9	0.00043577634
247	0xbc8ca51a	-0.01716857
248	0xbc35c4ba	-0.011094267
249	0x3a4b1995	0.00077476475
250	0x3c2bcc86	0.010485774
251	0x3cd7c65a	0.026339699
252	0x3d087561	0.033315066
253	0xbce8e02c	-0.028427206
254	0x3ceb3f8c	0.028716825
255	0x3c1e9899	0.009679937

model_8/tf.__operators__.add/AddV2/y f4 [32]
0	0x3bd8e867	0.0066195014
1	0xbc9db906	-0.019253265
2	0xbc89a786	-0.016803514
3	0xbcd3091b	-0.025761178
4	0xbca63629	-0.020289497
5	0xbb33b3ba	-0.0027420358
6	0xbc42a15f	-0.011879294
7	0xbd049893	-0.03237207
8	0xbbbe6da6	-0.005811411
9	0x3cf699a2	0.030102555
10	0x3b0e1a67	0.0021683217
11	0xb93c9995	-0.00017986291
12	0xbc3d82da	-0.011566842
13	0xbccb6508	-0.024828449
14	0x3c85b96a	0.016323764
15	0xbbc7d451	-0.006098308
16	0x3bc73706	0.0060795574
17	0x3a5df671	0.00084672036
18	0xbac074a5	-0.00146832
19	0x3c9fcaa6	0.01950581
20	0xbad90773	-0.0016558006
21	0x3be653db	0.0070290393
22	0xbba88b79	-0.0051435796
23	0xbbf335a4	-0.007422166
24	0xb9596f15	-0.00020736114
25	0x3c9d2808	0.019184127
26	0xbc38f03d	-0.011287746
27	0x3c9fb086	0.019493353
28	0xbc74918f	-0.014927282
29	0x3bafbe31	0.0053632488
30	0xbbf92b44	-0.0076040346
31	0xbcc30e85	-0.023810634

model_8/tf.__operators__.add_1/AddV2/y f4 [32]
0	0x3cb96f13	0.022635972
1	0x3ce07f7f	0.027404545
2	0x3d5988a0	0.05310881
3	0x3dc4fa12	0.096180096
4	0x3c347502	0.011014225
5	0xbcde6252	-0.027146492
6	0x3d354b68	0.044261366
7	0xbdb22915	-0.08699242
8	0xbde854ea	-0.11344321
9	0x3d695360	0.05696428
10	0x3d050aa4	0.03248085
11	0x3dea69a5	0.11445931
12	0xbe29f67d	-0.16597934
13	0x3d694c2f	0.05695742
14	0x3bb1bdba	0.0054242285
15	0x3df693ec	0.120399326
16	0xbc850c2e	-0.01624116
17	0x3d637ddb	0.055539947
18	0x3d28c2e3	0.041201483
19	0x3e1025fa	0.14076987
20	0x3da9ed01	0.08297158
21	0x3d44683b	0.047950964
22	0x3e2b6198	0.16736448
23	0xbdf5bb34	-0.11998597
24	0xbdbfb5cf	-0.09360849
25	0xbdebbdbf	-0.115108006
26	0xbb821c97	-0.0039706933
27	0xbd890e7c	-0.06692216
28	0xbd6ed09c	-0.058304414
29	0x3e1e3d01	0.15452959
30	0x3e323de4	0.17406422
31	0x3dd7554d	0.10514317

model_8/tf.math.add_2/Add/y f4 [1, 32]
0	0xbc9a9631	-0.018870445
1	0x3ca0e8ca	0.019642252
2	0x3c100126	0.008789336
3	0xbc1ae9bc	-0.009455141
4	0x3c55f8dd	0.013059822
5	0xbbb60c21	-0.005555645
6	0xbc7bcc8f	-0.015368595
7	0x3d20d793	0.039268088
8	0xbc3c07ec	-0.011476498
9	0x3c311738	0.010808758
10	0x3cb8a8d2	0.022541437
11	0x3c33f021	0.010982544
12	0x3c37a2f2	0.011208283
13	0x3d1d857a	0.03845737
14	0x3c432365	0.011910294
15	0x3c1a721f	0.009426623
16	0x3b8d2e8f	0.0043085287
17	0xbc6e50da	-0.014545644
18	0x3a7bc562	0.00096043025
19	0x3c5097e9	0.012731531
20	0xbb7c48e7	-0.0038495602
21	0x3c464669	0.012101748
22	0x3be42ac8	0.0069631077
23	0xbc35b29c	-0.011089947
24	0x3c0ffb01	0.008787871
25	0x3bae1369	0.0053123725
26	0x3c8f0a98	0.017461106
27	0xbc58db35	-0.013235857
28	0x3cb4fcd8	0.022093222
29	0xbc2224f0	-0.009896502
30	0xbc359c07	-0.011084563
31	0xbc68db17	-0.014212391

model_8/tf.math.add_5/Add/y f4 [1, 32]
0	0x3e6c69f9	0.230873
1	0x3d1de7e5	0.03855123
2	0xbd865891	-0.065598615
3	0x3d7445da	0.05963693
4	0x3ca04d6a	0.019568164
5	0x3cee5cf5	0.02909706
6	0x3bef1238	0.007295873
7	0x3d8f8126	0.07007055
8	0x3d950d83	0.07277968
9	0x3d66cba2	0.056346543
10	0x3b82b8cc	0.0039893147
11	0x3e84142b	0.25796637
12	0xbcc46353	-0.023973143
13	0x3c82e355	0.015977541
14	0xbcdb5412	-0.026773486
15	0x3e69d7ae	0.22836182
16	0x3c889f35	0.016677478
17	0x3e785d13	0.24254255
18	0x3e80394c	0.25043714
19	0x3e6a4546	0.22877988
20	0xbd3f9def	-0.046781477
21	0xbbb2ac7e	-0.0054526916
22	0xbcb92b6e	-0.022603717
23	0xbcf6c8d2	-0.030125055
24	0x3e6fd593	0.23421316
25	0x3cde2758	0.02711837
26	0x3cf713d3	0.03016082
27	0x3e7dd3b6	0.24787793
28	0x3e6b19fe	0.22959134
29	0xbcbb8c55	-0.022894064
30	0x3e9115fa	0.2833708
31	0x3d456930	0.048196018

model_8/tf.math.multiply_10/Mul/y f4 [1, 32]
0	0x3f7f6600	0.99765015
1	0x3f7e7792	0.994012
2	0x3f7ee8d1	0.99574
3	0x3f7f39db	0.99697655
4	0x3f82f049	1.0229579
5	0x3f7f698b	0.9977042
6	0x3f7eb5e9	0.9949632
7	0x3f842726	1.0324447
8	0x3f7f8600	0.9981384
9	0x3f813a87	1.0095986
10	0x3f77246d	0.96539956
11	0x3f7d4693	0.9893581
12	0x3f835787	1.0261086
13	0x3f808e60	1.0043449
14	0x3f77615f	0.9663295
15	0x3f817b31	1.011572
16	0x3f79b18d	0.97536546
17	0x3f7f6947	0.99770015
18	0x3f7dd863	0.99158305
19	0x3f7cdbfd	0.98773175
20	0x3f7eb5f5	0.99496394
21	0x3f7dd41c	0.9915178
22	0x3f80e3fe	1.0069578
23	0x3f7f8a12	0.99820054
24	0x3f8053f5	1.0025622
25	0x3f797474	0.9744332
26	0x3f855f0b	1.041963
27	0x3f7f60a7	0.99756855
28	0x3f783b4b	0.96965474
29	0x3f7f7c41	0.9979897
30	0x3f7f5063	0.99732035
31	0x3f7f1de2	0.9965497

model_8/tf.math.multiply_22/Mul/y f4 [1, 32]
0	0x3f9c5757	1.2214154
1	0x3f876ef6	1.0580738
2	0x3f6d71d4	0.9275181
3	0x3f89031d	1.0704075
4	0x3f86d436	1.0533512
5	0x3f81c46a	1.0138066
6	0x3f8047a1	1.002186
7	0x3f8ceca0	1.1009712
8	0x3f8e4458	1.1114607
9	0x3f8bb34f	1.0914096
10	0x3f7fd3bf	0.99932474
11	0x3fa463b9	1.2842933
12	0x3f7d1bb2	0.98870385
13	0x3f81f8e5	1.0154082
14	0x3f7abf6d	0.9794834
15	0x3f9c8e87	1.2230996
16	0x3f81606b	1.010755
17	0x3f9fd975	1.2488238
18	0x3fa23f20	1.2675514
19	0x3f9b3c25	1.212773
20	0x3f7219aa	0.9457041
21	0x3f7cc341	0.98735434
22	0x3f7d7252	0.99002564
23	0x3f789b55	0.9711202
24	0x3f9f1610	1.2428608
25	0x3f8554ce	1.0416505
26	0x3f872b6b	1.0560125
27	0x3fa00ec2	1.2504504
28	0x3f9bf27c	1.2183375
29	0x3f7dab82	0.99089825
30	0x3fadd0a2	1.3579295
31	0x3f88242d	1.063604
