wyoming/oww-models/hey_munibot.onnx (onnx, 206810 bytes, 9 tensors)

layer1.weight f4 [32, 1536]
00000000: d54b e23c 6d11 563c aaa8 a4bc 0f2f 57bd
00000010: 811e 293d f538 84bc f907 f2bb 4093 1f3b
00000020: f3c6 90bd 7230 d83c b912 64bc 45e4 963d
00000030: 5e6e 79bd c16b 8b3d b49e 92bc 48e5 933b
00000040: fb15 8f3c 9eac ed3c 8e3a 923a 8c06 28bd
00000050: 8f22 f3ba cdf3 9bbc 3a4f 0b3b 2019 2cbb
00000060: d191 da3c cc58 693c dfb7 623b 6f27 96bc
00000070: e31d 863b 6d25 15bd 63dd f43c c6b3 f4bc
00000080: cc88 34bc ac9f b23c ab9b dc3b 6306 f33c
00000090: 53aa 85bb 6c3b 513c 62bb 1d3b f7bf 733c
000000a0: dd78 c33c 3192 133b 8d1c fcbb a851 42bb
000000b0: c1d2 63bd 8231 cbbc a3b5 f03b 6210 84bc
000000c0: ab2d 28bd 0519 3b3d 3a29 19bc 028d 473b
000000d0: 4f33 6dbc 6784 99bb 0d3e 1fbc b25b b93b
000000e0: 3b9c abbc 485d 17bd c9d6 c6bb bcc4 003b
000000f0: 9423 5e3c f0a3 1bbd d8e8 293d 9f56 8bbc
00000100: fb4a d2bb 69db d43c 1b63 0a3d c92d 8dbc
00000110: 8dce 8cbd 745a 3cbc 40b2 333d 42c0 8b3c
00000120: 12b0 063d 9566 87bc b830 023b 83f7 cabb
00000130: a3fe f9ba da91 973b 0dec 4a3c 7e61 afbc
00000140: 2f0a 163d 7944 f4bc ebc5 98bb b1d6 9b3c
00000150: 7b84 bab9 c7f5 31bd e1a6 79bd 0011 acbc
00000160: 4752 07bd 8e61 e2bb f915 f5ba a528 083c
00000170: e405 57bc 0591 a63c e195 253d dd07 a23c
00000180: b6c0 873d c5c4 e13c 4fd7 41bd f950 0dbd
00000190: 080a 2a3d 1f4b 8fbc a687 e5bb ba1b 47ba
000001a0: f87a 59bd 4c5e a736 907b bd3c 0873 383c
000001b0: ca23 91bc 9d7f 433d 889a 883b c469 9bbc
000001c0: 4f55 a9bc a058 743c 45b0 5dbc 1476 47bc
000001d0: ef0c 0dbd 5a71 0bbc 8964 2a3c e107 e3bc
000001e0: 2bc3 d53c 79fc f3bb 367a f2ba c08f 60bc
000001f0: afdc dbbc 718f 5c38 97fa 103d cb0b 83bb
00000200: 89b2 c73b cfb6 b53c 6ce5 c1ba d9ec 4f3d
00000210: 2642 88bc 2c96 f3bb 3f97 f83c 91c5 fd3c
00000220: 8510 c13c d90a 2f3b 3cc6 c8bb 8af9 dcba
00000230: f468 13bd f208 adbc 6daa 1d3c 1780 baba
00000240: 1ae7 4ebd f0e7 313d 8bd4 6e3c cf92 b93c
00000250: 9e30 83bc bd33 80bb bdde a53c 8f60 67bc
00000260: 8d96 3fbc 3040 e0bc 7a8b 8abc 806b 9f3c
00000270: 1469 513d 8185 a9bc 993c 0d3d 893b 4fbc
00000280: 8630 b4bc f021 723c 0fa9 803c 9d01 593b
00000290: 4475 49bd a8f3 323d a4ac 6e3c 36a9 b13c
000002a0: 1b20 023d 1b23 b63c 0f14 113b 4ea8 053d
000002b0: 9aad 11bd d07e 0b3c 4f0c c7bb a02f 00bd
000002c0: d53e bb3c 1c88 e2bc 1ea2 9f3c ee2e 8e3b
000002d0: 1d33 1bbd 4a0b f03a 7eb5 0dbd 3847 0fbd
000002e0: e483 b7bc 170f a5bc 716f ab38 0f9b d9bb
000002f0: 152e e3ba 0feb 543b 1bcc db3c 8e56 e5bc
00000300: 453e cd3c 8bf7 85ba b705 b6b9 b38c 69bc
00000310: 3d7c a23b a29d c1bb 5ea5 debc dcaf 30bd
00000320: 55bb 42bd d066 833c e044 8a3c 2c7a a6bc
00000330: fe53 2fbd af37 663b 3632 863a e777 d53c
00000340: 6994 3fbd 0d22 17bd a440 1a3c 2a2f e1bb
00000350: 5f61 02bd 3030 5bbc cdfd 543b 2498 253c
00000360: bfc9 0a3c 74a0 d23b 240a 8c3c b1f1 1cbd
00000370: 84a6 32bd 594c 1dbd d4b6 453d 57d1 27bd
00000380: 10a0 d43c 9a64 17bd 2542 5a3c 2533 283c
00000390: 6e08 f1bb 35bb be3c fead 923c 702d f039
000003a0: 2e50 a63b b49f cf3c 9f4a 09bc 7c4b 903c
000003b0: 33bf c6bb ad0f b2bc 1c36 50bc 2e9d 4fbc
000003c0: 135a 6abd 6f27 263b 4b5f 5d3c edff 333c
000003d0: 13ce f4bc d65a 013d ee4e 813c 8ab7 8abb
000003e0: a162 803c ff2f fabc 9009 a7bb 5eae d93b
000003f0: 5251 333c 0f37 dc3c 60a8 99bb d4ba 06bd
0.02762405 0.013065678 -0.020099957 -0.052535113 0.041288856 -0.01614044 -0.0073862043 0.0024349242
-0.070691966 0.026390288 -0.013920479 0.07367758 -0.06089627 0.06807662 -0.017897941 0.0045134164
0.017466536 0.029012974 0.0011156367 -0.04102187 -0.0018549728 -0.019037152 0.002125694 -0.0026260093
0.026680859 0.014242362 0.003459446 -0.01832935 0.0040929182 -0.036412645 0.029890722 -0.029870879
-0.011018943 0.021804653 0.0067324243 0.029666131 -0.004079142 0.012770515 0.0024067988 0.014877311
0.023861343 0.0022517557 -0.007693833 -0.0029650722 -0.055620912 -0.02480388 0.0073458715 -0.016121093
-0.041059177 0.045678157 -0.009348208 0.0030449037 -0.014477565 -0.004684973 -0.009719384 0.005656683
-0.02094852 -0.036954194 -0.006068085 0.0019648513 0.013558287 -0.03799814 0.041481823 -0.017009078
-0.00641763 0.02598353 0.03378592 -0.017233746 -0.06875334 -0.011496175 0.043871164 0.01705945
0.032882757 -0.016528407 0.0019865464 -0.0061940565 -0.001907308 0.004625541 0.01238538 -0.021408793
0.036630806 -0.029817807 -0.0046622655 0.019023271 -0.0003557539 -0.043447282 -0.060950164 -0.0210042
-0.03303745 -0.006908602 -0.0018698565 0.008310472 -0.013123963 0.020332823 0.04042614 0.01977914
0.066285536 0.027559647 -0.047324475 -0.03450105 0.041513473 -0.017491875 -0.007004696 -0.0007595379
-0.053095788 4.9879654e-06 0.023130208 0.011257894 -0.01771726 0.047729123 0.004168812 -0.018971331
-0.020670561 0.014913708 -0.013530795 -0.012174148 -0.034436163 -0.008510912 0.010399946 -0.027713718
0.02609404 -0.0074458686 -0.0018499556 -0.013706148 -0.026838629 5.2585678e-05 0.03539523 -0.0039992086
0.006094281 0.022181896 -0.0014793104 0.050762985 -0.016633105 -0.0074336734 0.030345557 0.030977996
0.023567447 0.0026709347 -0.006127147 -0.0016859036 -0.035988763 -0.02112243 0.009623152 -0.0014228848
-0.050513364 0.043434083 0.014577041 0.022653012 -0.016014393 -0.0039124177 0.020247811 -0.014122142
-0.011693609 -0.027374357 -0.01691221 0.01946044 0.0511256 -0.020693542 0.03448162 -0.012648472
-0.021995794 0.014778599 0.015705613 0.0033112534 -0.0491841 0.0436894 0.014567528 0.021687131
0.0317689 0.022233536 0.00221372 0.03263121 -0.03556595 0.008514121 -0.0060744653 -0.03129542
0.02285711 -0.027652793 0.019486483 0.0043390905 -0.037890542 0.0018313911 -0.034596913 -0.03498003
-0.022401758 -0.020148797 8.174673e-05 -0.006640799 -0.0017332459 0.0032488739 0.026830724 -0.027995374
0.025054106 -0.0010220868 -0.00034718003 -0.014254737 0.004958658 -0.005908684 -0.027178463 -0.043136463
-0.047541935 0.016040236 0.016878545 -0.020321928 -0.04280471 0.0035128405 0.0010238353 0.02605815
-0.046772394 -0.036897708 0.009414826 -0.0068720775 -0.03183114 -0.013378188 0.003249991 0.010107074
0.008470952 0.006427819 0.01709468 -0.038316432 -0.043615833 -0.03840289 0.04827006 -0.040971126
0.02595523 -0.036961176 0.013321434 0.0102661 -0.007355741 0.023282627 0.017905232 0.0004581022
0.005075476 0.025344707 -0.008379607 0.017614119 -0.006065273 -0.02173599 -0.012708213 -0.012671752
-0.057214808 0.0025353094 0.013511489 0.01098631 -0.02988342 0.03158077 0.015784707 -0.0042333053
0.01567203 -0.030540464 -0.0050975755 0.0066431006 0.010944681 0.026881723 -0.0046892613 -0.032893017

layer1.bias f4 [32]
00000000: 4b7f 863c 0c50 853c 063b 503c 02d1 3abb
00000010: ccc3 28bb f718 8abc 1526 e13c afac 0ebb
00000020: 2f28 563c fea1 d63b e804 aa3b ced9 b63c
00000030: 7aa8 723c 773b 843c 6b6c 493a 531a 44bb
00000040: 1373 b43b 98bf fd3c e067 4d3b 6a64 d23c
00000050: c4d3 a43b 80d9 2bba dc33 873c d66d 70bc
00000060: f97b 80bc d3b4 94bc 3722 c03b 732d c5bc
00000070: 01ac c2bc b5f9 b539 8051 2b3c 3888 60bc
0.01641812 0.01627352 0.012709385 -0.0028505926 -0.002575147 -0.016857607 0.02748398 -0.0021770408
0.013071104 0.0065500727 0.005188573 0.022320654 0.014810676 0.016141636 0.0007683697 -0.0029922917
0.005506882 0.030975148 0.0031342432 0.025682647 0.0050301272 -0.00065555423 0.01650422 -0.014674624
-0.015684115 -0.01815263 0.0058634537 -0.024069523 -0.023763658 0.00034709056 0.010456443 -0.013704352

layernorm1.weight f4 [32]
00000000: 1706 853f d8d0 843f dd5e 803f 6a5d 783f
00000010: 0101 7a3f f687 783f 30f5 7d3f e061 803f
00000020: 39b4 7a3f 651c 7b3f e573 763f 6f74 7a3f
00000030: a20e 7d3f c6d6 803f 465e 7e3f 0875 7e3f
00000040: e3b9 803f 18c7 803f 1069 7c3f dcea 7a3f
00000050: ee91 813f 6bcc 7d3f 30d4 7f3f 746f 733f
00000060: 1d32 803f ac58 7b3f 92ee 7e3f 9302 813f
00000070: 5259 803f b448 803f e7af 7c3f 56b2 783f
1.0392483 1.0376234 1.002895 0.9701754 0.9765778 0.9708246 0.9920225 1.0029869
0.9793125 0.980902 0.9627059 0.97833914 0.9885045 1.0065544 0.993626 0.99397326
1.0056728 1.0060759 0.9859781 0.98014617 1.0122659 0.9914004 0.9993315 0.9509194
1.0015293 0.9818218 0.9958278 1.007891 1.0027258 1.0022187 0.98705906 0.9714712

layernorm1.bias f4 [32]
00000000: 60a4 763c 83e1 513c 48b9 4b3c 068e c9bc
00000010: 4588 b2bc 63e3 7abc 42a5 213d a549 debb
00000020: b73f 793c 280c f0bc f162 89b9 2df9 49bd
00000030: 9a99 b3bc d5a5 3bba 5997 98bc 9a76 d2bc
00000040: 95cb 033c d9ad fd3b 30c3 06bd 9e3b 9d3c
00000050: 1e7c 25bc a705 b2bc f119 5db9 05ce 243b
00000060: 503d fb3b 0a26 9dbc 8ad1 91bc 5801 c33a
00000070: 1405 903b 324e 943c 94a0 95bc 4878 f4bc
0.0150538385 0.012810114 0.012434311 -0.024603855 -0.021793494 -0.015313002 0.039464243 -0.0067836815
0.015212945 -0.029302672 -0.00026204393 -0.0493099 -0.021923829 -0.0007158195 -0.018626856 -0.02569132
0.008044143 0.0077416715 -0.03290099 0.019193467 -0.010100393 -0.02173121 -0.00021085866 0.0025147211
0.007667221 -0.019183178 -0.017800111 0.001487772 0.0043951366 0.018103693 -0.018265046 -0.02984251

blocks.0.fcn_layer.weight f4 [32, 32]
00000000: 2080 a7bd 9d85 b23d e827 763d e9dd d9bd
00000010: 64fa 223e cd09 2e3e bc2a afbc b6a5 26bd
00000020: 354a 5c3d 3893 10be 0ebc 2e3e 91b2 8b3d
00000030: 796c 32bd 72a3 84bd ce62 a13d cfff 03bc
00000040: c2e6 073e 2ca6 d1bd b6b7 fa3d 5421 323e
00000050: 7e44 cc3d 1901 06be 22b6 72bd 3e89 e9bd
00000060: c3fd d23d add5 c1bc e4e7 d83d c56a 593d
00000070: b47c 05be 35af 293d b00d 1b3e 2e89 16be
00000080: 5d50 29be 4e33 27be aaf9 07be b14a 8a3d
00000090: 7d29 59bd 26a7 fa3d 956c 703d 150d 933d
000000a0: 229b ca3d 8e99 9f3c c37c b9bd 901f 673a
000000b0: acf5 1f3e 7b9a d63d f46e fdbd a3ee 9dbd
000000c0: e24e 47bb 6f8f 8c3d 09ac 34be 0c9c 273d
000000d0: 6caf d53c 5ea2 ed3c 98c6 e13d ba53 fbbc
000000e0: 0289 013c 47b5 263e d95b e53d 2e97 ab3d
000000f0: 41af 963d 5b2b 1dbd 864c 19be 5460 643c
00000100: 309d 1dbe c613 de3d c2da 9b3d 25fb 253e
00000110: 12fb 0dbe 345c aa3c 1883 37be 0fe0 25be
00000120: 1fd0 11bd 7b14 85bd 6c4e 87bd 4e3c 163e
00000130: 9cf1 8bbd 2ce4 dc3b 557d f5bd 7e6a 2abe
00000140: bbad ac3d 7514 193e 4761 cdbd 86a5 0d3e
00000150: 2c0c c3bd ff97 24be f73d a2bd f3f2 f33d
00000160: c33a ddbc 7965 60bd e577 f9bc 7919 8abb
00000170: fbb5 1e3e 20d5 c43c 0187 9dbd 9658 793d
00000180: 9463 18bd 9da1 933d 2a0c 793d c376 f23d
00000190: 70bc 07bd 909f 973d 66b4 93bc 477d 5fbd
000001a0: fb66 45be 4cd9 2bbd d6ea f4bc ba04 df3d
000001b0: a886 773d c18f cdbd 1948 9dbc 15f6 58bd
000001c0: 7a55 2ebe 3c3f c5bd efaa 223e d7b2 2a3c
000001d0: 3e84 9fba c1c4 ac3d a97f 2cbd 1a43 b1bc
000001e0: c403 6d3c 16e5 e53c 2081 0cbd 7df5 213d
000001f0: c20a c4bc 3b4a 103e 72f8 17bd cd09 613c
00000200: 439b 493d ecce 18be ae26 73bb 6e9d d6bc
00000210: be5f 6c3d e790 c9ba 3742 893c 59eb b0bd
00000220: 6ae5 b83d f365 ea3d a390 9f3d 63fc e83d
00000230: 34c5 873d 0c37 8cbd 58e8 5f3a 00b7 a8bd
00000240: 1955 2cbd 4f0e cebd 3a75 d0bd ca72 16be
00000250: da2e 5ebc ea77 12bd 96e1 31bd c1ce e33d
00000260: 9e23 96bd b331 103c b826 ab3d d996 173e
00000270: fb5f 643d 5139 663d 90b4 c13c b3f2 c4bd
00000280: 51c1 13be 7418 d73d dbd9 323c f622 14bd
00000290: 9140 a53d c220 853d e8be d53d b5eb 493d
000002a0: 5ffe 5d3e 402f 23bd 079c 87bc e049 cf3d
000002b0: b6c2 65bd 08b3 29be 3f42 1e3e 76a9 f8bd
000002c0: c82f abbd 145c 303e 443d be3d 37ab f8bd
000002d0: 2097 d03d 6ceb c2bd 31b1 1ebe 8653 3c3c
000002e0: 618a d43d de7e 94bd 1cda 713c 637a 17be
000002f0: 2aa5 05be 622e 163d 270c 06bd 1dc3 4fbc
00000300: ac43 cabc bf10 913b 1fd8 86bc f076 483d
00000310: 2f8e 2bbc 2570 f03d d8d6 13be f945 0bbe
00000320: 1351 763d b412 1c3d bbcf 073e ceb1 b13d
00000330: 3cd2 f8bd 1449 cfbd af6b 0cbe a188 2fbd
00000340: 6c4c fabb 157f 13be 76f2 89bd 8f36 31bd
00000350: 0e9d 3a3e ba00 f3bd 9b0b 093e fc5f 1e3c
00000360: aaaa 2cbd b500 29be 24f6 45bd fc1b 15be
00000370: a2fb f63d 7bf6 e53c 340d c3bd 335a 753a
00000380: bf85 e63d 9f12 de3d 6c66 033c 9890 9b3d
00000390: bc28 babd f19f c0bd 5dbc 203d 86ad 9cbd
000003a0: 5226 13be 70a9 b0bd f5c1 22be 8b2a 06bc
000003b0: 3548 9ebd 0f4c a8bd facd 84bd baa9 d83d
000003c0: e592 3fbe 6f38 bbbd 365f 07be a012 a83d
000003d0: a9e6 cbbd 371f b13a c51a 273e 19c2 cb3c
000003e0: 3e77 17bd 6284 1e3e ff78 dfbd 9f0e 133e
000003f0: 513b bb3d 580e 60bd b0ce c6bd da01 68bd
-0.08178735 0.08716891 0.06009665 -0.10638029 0.15915829 0.16995926 -0.021382682 -0.040685378
0.053781707 -0.1411866 0.17063925 0.06821168 -0.04356048 -0.06476487 0.078801736 -0.008056595
0.13271621 -0.10236773 0.12242071 0.17395526 0.09974001 -0.13086356 -0.059255727 -0.1140313
0.103023075 -0.023661459 0.105911046 0.05308034 -0.13035852 0.041426856 0.1514194 -0.14700767
-0.16534562 -0.16328165 -0.13278833 0.067525275 -0.053018082 0.12238912 0.058697302 0.071802296
0.098928705 0.0194824 -0.090569995 0.0008816654 0.1562106 0.104786836 -0.12374678 -0.07711532
-0.0030412008 0.06863295 -0.17643751 0.040920302 0.026084624 0.029008087 0.11024207 -0.030679572
0.0079062 0.1628009 0.11199159 0.083784446 0.07357646 -0.038371425 -0.14970598 0.013938982
-0.15391994 0.10843615 0.07610084 0.16209085 -0.13865307 0.020795919 -0.17921102 -0.16198753
-0.03559887 -0.06498047 -0.06606755 0.14671442 -0.06833193 0.0067410674 -0.11986796 -0.16642186
0.08431574 0.1494921 -0.1002832 0.13832673 -0.09523806 -0.16073607 -0.07921975 0.11911573
-0.027005559 -0.054784272 -0.030452678 -0.0042144624 0.15499108 0.024027407 -0.076917656 0.060875498
-0.03720434 0.0720856 0.060802616 0.11839058 -0.033138692 0.07403481 -0.018030357 -0.054562833
-0.19277565 -0.041955277 -0.029897135 0.108895734 0.060431153 -0.100371845 -0.019199418 -0.052969057
-0.17024794 -0.096312016 0.15885518 0.010418615 -0.0012170149 0.08435965 -0.042113934 -0.021638442
0.01446623 0.028063338 -0.03430283 0.039540756 -0.023930911 0.14090817 -0.03710217 0.013735247
0.049220335 -0.14922684 -0.0037101912 -0.026198115 0.057708494 -0.0015378267 0.016755207 -0.08638639
0.09028132 0.114452265 0.07791259 0.11376264 0.066294104 -0.06846437 0.0008541397 -0.082380295
-0.042073343 -0.10061323 -0.10178609 -0.14692226 -0.013560975 -0.03575889 -0.043428026 0.111234196
-0.07331012 0.008800912 0.083569944 0.14803638 0.055755597 0.056207005 0.02364567 -0.09616604
-0.14429213 0.10502711 0.010916199 -0.036166154 0.08068956 0.06500389 0.10436803 0.049297053
0.21679066 -0.039839983 -0.016553892 0.101215124 -0.056093894 -0.16572201 0.15454958 -0.12141697
-0.08358723 0.17222625 0.09289029 -0.12142032 0.10185075 -0.095175594 -0.1549728 0.011494523
0.10377956 -0.072507605 0.014761474 -0.1479278 -0.13051286 0.036665328 -0.032726433 -0.012680796
-0.024690472 0.004427045 -0.016460476 0.048941553 -0.010470911 0.1174014 -0.14437425 -0.13600911
0.060135912 0.038103774 0.13262837 0.08676492 -0.12149474 -0.101213604 -0.13712953 -0.04285491
-0.0076385047 -0.14403947 -0.06735699 -0.04326492 0.18223974 -0.11865373 0.13383333 0.009666439
-0.042154945 -0.16504176 -0.04833044 -0.14561456 0.12059714 0.028071633 -0.09524003 0.0009359449
0.11255979 0.108433954 0.008020025 0.075959384 -0.09089801 -0.094055064 0.039242137 -0.076502845
-0.14370087 -0.08626068 -0.15894301 -0.008188854 -0.07728616 -0.08217632 -0.064845994 0.10579248
-0.1870838 -0.09141623 -0.13219914 0.082066774 -0.09956104 0.0013513331 0.16318806 0.024872826
-0.036978953 0.15480188 -0.1091175 0.14361046 0.09142173 -0.05470118 -0.09707391 -0.05664239

blocks.0.fcn_layer.bias f4 [32]
00000000: d710 2abe dda8 d9bc be69 6b3d 748e 2dbe
00000010: 2e01 753d 3a83 a7bc 23af 083e 8847 523e
00000020: b738 16be 0998 15be 39d2 ecbc 3fda 0e3e
00000030: 449c fe3d 956d 0dbe ee4d 56bd 0359 edbc
00000040: bedd 0f3e ffe0 ab3d b360 0dbe 944d b03d
00000050: c0af a43c c161 3e3d 4139 dc3d 9d12 77bd
00000060: 3b1c 12be 913b c0bd 4b5f 0fbe e7a2 8d3c
00000070: b971 233d 61ec b03d 6e8d cd3d 543e 273e
-0.16607986 -0.026569778 0.05747389 -0.16948873 0.05981558 -0.020448316 0.1334806 0.205351
-0.14670072 -0.14608778 -0.028908836 0.13950442 0.12432149 -0.13811333 -0.052320413 -0.028973108
0.14049432 0.08392524 -0.13806419 0.08608547 0.020103335 0.046479944 0.10753108 -0.060320485
-0.14268582 -0.093863614 -0.14001195 0.017289592 0.039903376 0.08638836 0.10036741 0.1633237

blocks.0.layer_norm.weight f4 [32]
00000000: 50cf b63f d5c1 823f 0b3a a03f ee76 803f
00000010: 50f3 853f 3dbb b53f 192e 883f 60c7 8f3f
00000020: cfaf 843f d8ed 8c3f 2037 873f d728 823f
00000030: 6649 823f ebd4 843f 553d 813f 29a8 7f3f
00000040: a667 883f 3ad0 7e3f 286a 7e3f 5d6d 9e3f
00000050: b018 7e3f 8266 8a3f ad7b 803f 19d4 8c3f
00000060: 9cbf 703f 2ff5 8a3f 9234 743f 4e90 b23f
00000070: 7209 a13f 7483 a33f 7329 7a3f a6a3 873f
1.4282017 1.0215403 1.2517713 1.0036294 1.0464878 1.4197766 1.0639068 1.123272
1.0366153 1.1010084 1.0563698 1.0168713 1.017865 1.0377477 1.0096842 0.9986597
1.0656631 0.9953648 0.9938073 1.2377125 0.9925642 1.0812533 1.0037743 1.1002227
0.9404237 1.0856074 0.95392716 1.3950288 1.2581007 1.2774491 0.97719496 1.0596817

blocks.0.layer_norm.bias f4 [32]
00000000: adda b43e 8c2c 19bb 5bbc 8a3e e2e4 aa3b
00000010: e032 053d 2c04 b13e c4e7 233d 7f18 c83d
00000020: c88f 4b3d b5ae 753d 65f8 e73c 0961 893b
00000030: 68aa 863c cbb2 f53b ee84 343c 0009 ffbb
00000040: 7ffa 4d3d 5bff 0bbc f249 45bc 00ea 853e
00000050: 97e1 163c 84a9 763d be66 30bc 3e17 8f3d
00000060: 0425 4dbd 87d0 613d 2658 8dbc 51f6 aa3e
00000070: 03db 893e c127 8d3e f5ee 0fbd 1d00 db3c
0.35323086 -0.00233725 0.2709683 0.0052152732 0.03251922 0.34573495 0.04001595 0.09770297
0.049697667 0.059981067 0.028316686 0.0041924757 0.016438678 0.0074981204 0.011018021 -0.0077830553
0.05028772 -0.008544768 -0.012041556 0.2615509 0.009209058 0.060220256 -0.010766683 0.06986855
-0.05008413 0.055130508 -0.017253947 0.3339105 0.26924905 0.27569392 -0.035139997 0.026733452

last_layer.weight f4 [1, 32]
00000000: 4ef2 aebe 1446 2d3e dcad b4be 3703 a53c
00000010: e1b0 3c3d b3f4 b8be b6a5 7f3d b4a6 1d3e
00000020: 7e08 02be ec32 693e 74b7 373e 82f7 c03d
00000030: eb15 8a3d a752 b63d 9623 1d3e 4a7e 383d
00000040: 7b84 d53d 0806 233e e1bc 3b3d a14d babe
00000050: 015c f4bb 9d1e 2d3e 43ae 183e c0e9 333e
00000060: f38a 08bc 9eb3 a43d bf37 97bd fd10 b1be
00000070: 5f6f b9be cf26 babe fbda ad3d eeb0 633e
-0.3416924 0.16921264 -0.35288894 0.020143135 0.046067122 -0.3612419 0.062413894 0.15395623
-0.12698552 0.22773331 0.17941076 0.09422208 0.06742462 0.089024834 0.15345606 0.045042314
0.10425659 0.1592027 0.045834426 -0.3638735 -0.007457257 0.1690621 0.14910226 0.17569637
-0.008333909 0.08042072 -0.073836796 -0.34583274 -0.36217782 -0.36357734 0.08489033 0.22235462
