wyoming/oww-models/mava.onnx (onnx, 206810 bytes, 9 tensors)

layer1.weight f4 [32, 1536]
-0.022445688 -0.010739825 0.015417669 -0.0021187128 0.027101938 -0.0013998555 0.010911752 0.013900026
-0.03248862 0.011570144 0.007895038 -0.0123220505 0.0031749702 -0.011622011 0.0050839265 -0.01157237
0.006559416 -0.0043331096 -0.0052761366 0.01562741 0.007881158 0.016371982 0.0019834507 0.005675298
0.027467787 0.016898064 0.020970102 -0.013445977 0.006312667 -0.020099828 0.021923821 0.0140769165
-0.021193288 0.014230787 -0.016549163 0.0070242085 0.019070081 -0.014758975 -0.0065322644 0.0031299493
0.013518045 -0.023661632 -0.026455054 -0.00042468117 0.0098659815 -0.027009107 -0.008456015 -0.032279953
0.017929124 0.026032444 0.022435576 0.010660426 -0.027112665 0.026395405 0.020517837 0.008129761
0.0136146825 -0.018043708 0.024454713 0.004915967 -0.013346864 -0.0026749698 0.030502303 0.008769744
-0.0204374 -0.015013382 0.022128468 -0.013394009 0.0054208296 0.028279077 0.029741066 0.014602788
-0.0022690273 -0.013663343 0.019579347 0.001213535 0.0071929283 0.014375861 -0.023470515 -0.01192211
-0.013112889 0.01961076 -0.013040195 0.014999543 0.024348121 0.005228209 0.01193761 -0.00904339
-0.014103568 -0.024392745 0.023362417 -0.020174708 -0.020152055 0.0023977335 0.008881433 -0.019470274
-0.01998526 0.025033386 -0.014103691 -0.048543602 -0.0059829224 0.0138136735 0.021265592 0.018437745
-0.03988087 -0.020954143 -0.014038392 -0.006077075 0.015528417 0.005646378 0.022644665 0.03105823
0.0155654745 0.016706197 -0.0073823873 0.009818217 0.022720546 0.018906105 0.007112223 -0.021750228
0.019589113 0.017125074 -0.0013044948 -0.022026708 0.0021483954 -0.023579853 0.011095062 0.006123162
0.012159212 0.0134704355 -0.006510722 0.009212501 -0.020380445 -0.016444782 0.0017482697 -0.023166735
-0.001668087 -0.004037887 -0.008594556 0.0065709203 -0.019533422 -0.02308739 -0.0013479257 -0.03006119
-0.018787475 0.030145204 0.01213855 -0.009812175 0.0092036305 -0.0070587704 -0.023110934 0.024203205
0.01634278 0.022178987 -0.013019123 -0.02715593 0.0246875 -0.0022942876 0.007088223 0.011176682
-0.020060247 -0.007377178 -0.0015034996 -0.022887848 -0.00274102 -0.022815302 -0.0023583525 0.020391632
-0.008162877 -0.013221271 0.00085387455 -0.013508726 7.768383e-05 0.0023726088 -0.025363814 0.02492629
0.016178638 0.00028296548 -0.014349037 0.0064413655 0.021438194 0.0065438617 -0.013591795 0.0044906656
-0.02332293 -0.021835553 0.028332183 -0.0013324054 0.011690354 -0.00052529026 -0.0028897186 0.016500212
0.018712562 0.025669292 0.012744792 -0.01853557 -0.015808338 -0.0047136536 -0.007609697 -0.002761886
-0.0079758335 -0.0021761386 0.011268719 0.0004840115 -0.0098738475 -0.006108777 0.013413199 0.01715553
0.005915506 0.018394696 0.01883367 -0.0046093264 0.0038675051 -0.014013084 -0.011395357 0.0073293787
0.013633721 -0.006791409 0.022531457 0.016197653 0.004829244 -0.03091174 -0.011107923 0.02630136
-0.013872974 0.008488558 0.022877082 0.029976482 0.02422018 -0.010263285 -0.013837096 0.0122362925
0.016827904 -0.027677111 0.009203081 -0.01302755 0.003320903 -0.014663646 -0.031789202 -0.018381903
-0.004762561 0.022381362 -0.013581644 0.025687387 -0.01281304 0.014062932 0.002534916 -0.004026514
-0.011694847 -0.017704 0.014013465 0.008198443 -0.011797323 0.0168737 -0.00096818566 -0.0214328
00000000: 05e0 b7bc 17f6 2fbc 649a 7c3c 1ada 0abb
00000010: e204 de3c 5b7b b7ba 34c7 323c efbc 633c
00000020: ca12 05bd b490 3d3c 315a 013c 6de2 49bc
00000030: 2913 503b 3f6a 3ebc 1197 a63b 0a9a 3dbc
00000040: 5ff0 d63b c2fc 8dbb 71e3 acbb 0e05 803c
00000050: f91f 013c 891e 863c c8fc 013b daf7 b93b
00000060: 2004 e13c cf6d 8a3c 7ec9 ab3c 844c 5cbc
00000070: 7dda ce3b 65a8 a4bc 9699 b33c dea2 663c
00000080: 8c9d adbc 3f28 693c 1c92 87bc 552b e63b
00000090: dc38 9c3c a1cf 71bc 9b0c d6bb d61f 4d3b
000000a0: ca7a 5d3c 0ad6 c1bc 45b8 d8bc bea7 deb9
000000b0: eda4 213c 3442 ddbc 198b 0abc fc37 04bd
000000c0: 19e0 923c fe41 d53c d0ca b73c 11a9 2e3c
000000d0: 611b debc 2d3b d83c 0615 a83c b032 053c
000000e0: 1e10 5f3c 66d0 93bc 4055 c83c 1f16 a13b
000000f0: ceac 5abc 8c4e 2fbb f7df f93c f9ae 0f3c
00000100: 566c a7bc b0fa 75bc c346 b53c 8c72 5bbc
00000110: 37a1 b13b 86a9 e73c 89a3 f33c 8840 6f3c
00000120: f6b3 14bb 37dc 5fbc de64 a03c 7a0f 9f3a
00000130: a8b2 eb3b bb88 6b3c 3d45 c0bc f454 43bc
00000140: 71d7 56bc bfa6 a03c 8ba6 55bc a5c0 753c
00000150: b675 c73c 6551 ab3b f795 433c ba2a 14bc
00000160: a712 67bc 4bd3 c7bc 8a62 bf3c 6e45 a5bc
00000170: ec15 a5bc 4b23 1d3b 6e83 113c 2080 9fbc
00000180: 21b8 a3bc d112 cd3c 2b13 67bc a8d5 46bd
00000190: 640c c4bb bf52 623c 2e35 ae3c c10a 973c
000001a0: 205a 23bd 06a8 abbc 4901 66bc 3322 c7bb
000001b0: e76a 7e3c 4005 b93b 4e81 b93c d46d fe3c
000001c0: 5506 7f3c 6fdb 883c f4e7 f1bb 96dc 203c
000001d0: 7020 ba3c fae0 9a3c a70d e93b 892d b2bc
000001e0: 5979 a03c e249 8c3c 95fb aaba 5b71 b4bc
000001f0: 18cc 0c3b 892a c1bc 10c8 353c cea4 c83b
00000200: 6e37 473c 1ab3 5c3c e557 d5bb 08f0 163c
00000210: e4f4 a6bc 35b7 86bc 3226 e53a 2ac8 bdbc
00000220: b6a3 daba 4050 84bb 2ed0 0cbc e050 d73b
00000230: 8e04 a0bc c421 bdbc e2ac b0ba e242 f6bc
00000240: 31e8 99bc 13f3 f63c c5e0 463c 3fc3 20bc
00000250: d3ca 163c 424d e7bb 2453 bdbc cd45 c63c
00000260: 4be1 853c b5b0 b53c 294e 55bc 1d76 debc
00000270: 713d ca3c c25b 16bb 5344 e83b 671e 373c
00000280: 6355 a4bc 41bc f1bb 1311 c5ba 4c7f bbbc
00000290: afa2 33bb 28e7 babc 978e 1abb 5a0c a73c
000002a0: 96bd 05bc 089e 58bc 8dd6 5f3a b453 5dbc
000002b0: 30ea a238 c57d 1b3b c6c7 cfbc 3832 cc3c
000002c0: 1089 843c fc5a 9439 3918 6bbc 1712 d33b
000002d0: 279f af3c e46d d63b 1fb0 5ebc 6f26 933b
000002e0: bb0f bfbc 79e0 b2bc e518 e83c 1ba4 aeba
000002f0: e688 3f3c a2b3 09ba 6f61 3dbb 742b 873c
00000300: 164b 993c 6848 d23c 88cf 503c e8d7 97bc
00000310: 7d80 81bc fe74 9abb c45a f9bb c200 35bb
00000320: 12ad 02bc 8c9d 0ebb 6fa0 383c edc2 fd39
00000330: ebc5 21bc 232c c8bb 09c3 5b3c c189 8c3c
00000340: dcd6 c13b 79b0 963c 1249 9a3c d509 97bb
00000350: f875 7d3b 2297 65bc 97b3 3abc 492b f03b
00000360: f85f 5f3c 788a debb e493 b83c f1b0 843c
00000370: a33e 9e3b 9e3a fdbc 02fe 35bc f375 d73c
00000380: 784b 63bc 9813 0b3c b868 bb3c 3d91 f53c
00000390: 6669 c63c 5627 28bc fdb4 62bc bb7a 483c
000003a0: acda 893c 1cbb e2bc 85c8 163c 8171 55bc
000003b0: 82a3 593b ca3f 70bc 6535 02bd a595 96bc
000003c0: 420f 9cbb 1e59 b73c 8b85 5ebc 5b6e d23c
000003d0: c9ed 51bc 3668 663c d520 263b d9f0 83bb
000003e0: be9b 3fbc fb07 91bc bb98 653c c352 063c
000003f0: 8f49 41bc b73a 8a3c d7cd 7dba d793 afbc

layer1.bias f4 [32]
-0.006603915 0.028540708 -0.01835052 0.013533039 -0.020778902 -0.019335309 0.013034082 -0.010845686
0.013781247 0.009898215 0.0053859297 0.018382752 -0.018555725 -0.020765588 0.011893822 -0.0039577414
-0.02416914 0.03049547 0.0051112426 0.021417528 0.0074248575 0.01800976 -0.0023397375 0.023613982
-0.0025826783 -0.008300341 -0.01725205 0.026335157 0.016496206 -0.023961311 -0.023515778 -0.024062153
00000000: a765 d8bb 34ce e93c d453 96bc aeb9 5d3c
00000010: 8438 aabc 1565 9ebc e78c 553c 1bb2 31bc
00000020: bdca 613c 1f2c 223c 747c b03b 6d97 963c
00000030: 2d02 98bc 981c aabc 4ede 423c f1af 81bb
00000040: 5cfe c5bc a3d1 f93c 367c a73b d073 af3c
00000050: 384c f33b 3489 933c 4856 19bb 1c72 c13c
00000060: 2742 29bb 27fe 07bc 2c54 8dbc d4bc d73c
00000070: 0d23 873c 834a c4bc 29a4 c0bc fe1d c5bc

layernorm1.weight f4 [32]
0.99490005 0.9827277 0.9876966 0.9872927 0.97881854 1.0131621 0.99047285 1.023731
0.99552685 0.993927 0.9808038 0.99801576 0.98304933 0.9985553 1.0133809 1.01651
0.99048877 0.98717105 1.0127612 0.99809426 1.030859 0.99541956 0.99504715 0.99132764
1.0170404 0.99861985 0.99314487 1.0040596 0.99549085 0.997729 0.9975631 0.99489415
00000000: c5b1 7e3f 0b94 7b3f afd9 7c3f 37bf 7c3f
00000010: da93 7a3f 4caf 813f a18f 7d3f 9e09 833f
00000020: d9da 7e3f 0072 7e3f f515 7b3f f67d 7f3f
00000030: 1fa9 7b3f 52a1 7f3f 77b6 813f 001d 823f
00000040: ac90 7d3f 3eb7 7c3f 29a2 813f 1b83 7f3f
00000050: 30f3 833f d1d3 7e3f 69bb 7e3f a6c7 7d3f
00000060: 612e 823f 8da5 7f3f be3e 7e3f 0685 803f
00000070: 7dd8 7e3f 2b6b 7f3f 4c60 7f3f 62b1 7e3f

layernorm1.bias f4 [32]
-0.00798555 0.020303769 -0.028126279 -0.010462508 0.021847945 0.038639046 -0.0017435008 0.039073538
-0.0031602206 -0.024742557 0.0068304567 0.0034836207 0.021609826 0.0015044754 0.004924063 0.03510936
-0.001898908 0.039560974 0.01246948 -0.0069983876 0.027217211 -0.005868365 -0.00036882455 -0.00603544
0.0033207648 -0.009485961 -0.0043808487 0.028851684 -0.0047549997 -0.0056018205 0.0038754959 -0.0017489267
00000000: d3d5 02bc 1754 a63c 1569 e6bc f06a 2bbc
00000010: 76fa b23c fa43 1e3d 2e86 e4ba 930b 203d
00000020: b41b 4fbb e7b0 cabc 06d2 df3b 754d 643b
00000030: 1707 b13c d131 c53a 095a a13b d5ce 0f3d
00000040: c8e4 f8ba b00a 223d ca4c 4c3c bb52 e5bb
00000050: a1f6 de3c 6a4b c0bb cb5e c1b9 f1c4 c5bb
00000060: 30a1 593b 016b 1bbc 398d 8fbb 5e5a ec3c
00000070: d4cf 9bbb 7a8f b7bb 08fc 7d3b 3e3c e5ba

blocks.0.fcn_layer.weight f4 [32, 32]
-0.09644386 -0.03388912 0.03221788 -0.12682617 0.049312867 0.011892353 0.16559504 0.034804534
0.17260933 -0.1176687 0.060218498 0.1080831 0.06858521 -0.15823092 -0.04514542 -0.055285018
0.09892593 -0.09470859 -0.07389204 0.15055835 -0.1607544 -0.09597924 -0.018517664 0.00092758046
0.16321236 -0.124602355 0.05658554 0.13086401 0.0062359776 0.16489728 -0.029071419 0.02306391
-0.08049432 -0.10970414 0.00059669866 -0.13508746 -0.037815537 0.20006678 -0.038825072 -0.11060357
0.08962646 0.14540496 0.10930979 0.12865297 -0.14037955 -0.07636805 0.09586437 0.07123495
-0.10685176 0.16728117 -0.06414949 0.14013092 -0.14923902 -0.04818674 -0.16066971 0.08606612
0.11377507 -0.12702079 0.13976802 0.09276371 0.16946977 -0.13464011 0.15780102 0.04578838
-0.016709907 0.13844493 -0.044530008 0.14103119 0.06722693 -0.02625258 -0.009709094 -0.11196441
0.021076586 0.15295283 0.11951241 -0.039556883 0.15494512 0.12907273 0.12954457 0.1129221
0.10905551 -0.11870442 0.012231956 0.012934072 0.082850024 0.13573235 0.075605795 -0.15886097
-0.12550299 -0.17290905 -0.07453406 0.03896316 -0.09164765 -0.021754468 0.058024555 -0.09404615
-0.0758805 -0.022182224 0.01117402 -0.12301507 -0.16331945 -0.0937974 -0.06440793 -0.060886405
-0.12563026 -0.0691295 -0.1682347 0.13792364 0.047521077 -0.011482443 -0.010836982 0.0072054695
-0.034093868 0.16199312 -0.16875406 -0.016944315 0.1343405 0.044285644 -0.11983566 -0.07455465
0.08756262 -0.030019516 -0.13113715 -0.13063754 -0.14829606 -0.14911476 0.08238408 -0.10398568
-0.016784223 -0.06506226 -0.10445953 0.008734777 -0.024614394 -0.017418861 -0.14143534 -0.05843578
-0.13486753 -0.0732352 0.1476666 0.16732207 0.067584164 0.16650295 -0.124693945 0.16737258
-0.12476056 -0.017151574 0.070865944 -0.09092632 0.1704677 0.11181067 -0.008393804 -0.0053008944
-0.04554972 -0.17202275 0.15621589 -0.108013354 -0.16760512 0.12399996 0.030219976 -0.14775611
0.11113322 -0.12071014 -0.0844637 -0.050651096 0.06664709 -0.10107659 -0.09164311 0.14772972
0.1330021 -0.08304166 -0.06743067 -0.03205059 0.026003769 0.06474099 -0.0033453172 0.08838206
-0.03505561 -0.14510408 0.074188516 0.11277113 0.020723715 -0.06268992 0.0013230051 -0.12500244
0.07295196 0.13326955 -0.0008259961 -0.14971669 0.016518159 -0.083934925 -0.022866597 -0.007866737
-0.09123869 0.050615676 -0.1674874 0.0737755 -0.017394228 0.076367706 0.08455801 0.024897048
-0.12289307 -0.157045 -0.15965435 -0.021803107 0.09158442 0.1401255 -0.04064869 -0.052712206
0.16135205 -0.054783054 -0.09194214 -0.054886494 -0.103274874 0.09347621 0.118029654 -0.1618895
-0.041619614 -0.03299545 -0.03148942 -0.031751666 -0.15765238 -0.048990656 0.059648894 0.019203983
-0.13893412 0.1375935 -0.040075004 -0.040559668 0.16777824 0.11241011 0.09880933 0.11260334
-0.060643278 -0.18104224 0.06653946 -0.1541073 -0.13599421 -0.124332406 0.017561812 -0.048001118
-0.14031462 0.13110237 0.016260467 0.052817117 -0.12564872 -0.09641491 -0.06256811 0.062950835
-0.23600844 -0.074048996 0.11823491 0.07893726 0.0058901375 0.08101471 -0.045031566 0.13250868
00000000: 5c84 c5bd 51cf 0abd e5f6 033d b8de 01be
00000010: 4afc 493d 25d8 423c bf91 293e 338f 0e3d
00000020: 80c0 303e 4afc f0bd aca7 763d ac5a dd3d
00000030: 6776 8c3d 4907 22be 67ea 38bd 8b72 62bd
00000040: ae99 ca3d 94f6 c1bd b654 97bd f82b 1a3e
00000050: cd9c 24be c490 c4bd 5bb2 97bc df28 733a
00000060: 2421 273e 852f ffbd 3dc6 673d 3701 063e
00000070: 2c57 cc3b d5da 283e 2f27 eebc 86f0 bc3c
00000080: 35da a4bd 90ac e0bd c56b 1c3a 5e54 0abe
00000090: 77e4 1abd 4ede 4c3e 0a07 1fbd 2084 e2bd
000000a0: 148e b73d 0ae5 143e d0dd df3d 9bbd 033e
000000b0: a8bf 0fbe da66 9cbd 8a54 c43d a1e3 913d
000000c0: 18d5 dabd c14b 2b3e cf60 83bd 7b7e 0f3e
000000d0: 1dd2 18be 765f 45bd 9a86 24be 6f43 b03d
000000e0: e702 e93d bd11 02be 591f 0f3e e6fa bd3d
000000f0: 7c89 2d3e 19df 09be 9796 213e 998c 3b3d
00000100: 37e3 88bc 82c4 0d3e 1965 36bd 7b6a 103e
00000110: 46ae 893d a70f d7bc e412 1fbc 994d e5bd
00000120: cea8 ac3c ab9f 1c3e ecc2 f43d 6606 22bd
00000130: efa9 1e3e a42b 043e 55a7 043e b443 e73d
00000140: 7f58 df3d 4e1b f3bd 8b68 483c 6ee9 533c
00000150: 46ad a93d 6cfd 0a3e 36d7 9a3d 73ac 22be
00000160: db83 00be 120f 31be 50a5 98bd d697 1f3d
00000170: c3b1 bbbd 6d36 b2bc 28ab 6d3d 459b c0bd
00000180: 3c67 9bbd 7fb7 b5bc 3d13 373c 53ef fbbd
00000190: 373d 27be da18 c0bd 4ee8 83bd 0664 79bd
000001a0: 38a5 00be c493 8dbd b845 2cbe db3b 0d3e
000001b0: 76a5 423d db20 3cbc 998d 31bc dc1b ec3b
000001c0: 03a6 0bbd 86e1 253e ddcd 2cbe cece 8abc
000001d0: 8e90 093e dd64 353d 666c f5bd 1cb0 98bd
000001e0: 0854 b33d 7deb f5bc d148 06be d9c5 05be
000001f0: ecda 17be 8ab1 18be fcb8 a83d 72f6 d4bd
00000200: 117f 89bc 5d3f 85bd e1ee d5bd 4f1c 0f3c
00000210: 20a4 c9bc 00b2 8ebc 6dd4 10be 5b5a 6fbd
00000220: b71a 0abe 56fc 95bd ea35 173e 7a56 2b3e
00000230: 9169 8a3d c07f 2a3e 8a5f ffbd b863 2b3e
00000240: 7782 ffbd 7581 8cbc 2a22 913d 9437 babd
00000250: 168f 2e3e fefc e43d 2a86 09bc 20b3 adbb
00000260: 5892 3abd bb26 30be 0ff7 1f3e 1b36 ddbd
00000270: ada0 2bbe b1f3 fd3d e28f f73c 614d 17be
00000280: d099 e33d e136 f7bd 4efb acbd 8677 4fbd
00000290: 457e 883d 3e01 cfbd 62af bbbd 7646 173e
000002a0: b431 083e bf11 aabd 1719 8abd 7b47 03bd
000002b0: db05 d53c ed96 843d 1c3d 5bbb a701 b53d
000002c0: 7996 0fbd 2a96 14be 26f0 973d 8df4 e63d
000002d0: c8c4 a93c 9363 80bd af68 ad3a a400 00be
000002e0: d667 953d d077 083e a987 58ba 554f 19be
000002f0: 1751 873c 13e6 abbd bb52 bbbc 7de3 00bc
00000300: 5adb babd 6252 4f3d d181 2bbe 9c17 973d
00000310: 577e 8ebc ac66 9c3d c02c ad3d e5f4 cb3c
00000320: 5daf fbbd 68d0 20be 6e7c 23be 6e9c b2bc
00000330: 9d90 bb3d 0f7d 0f3e 3e7f 26bd c1e8 57bd
00000340: 7939 253e 3264 60bd 294c bcbd a9d0 60bd
00000350: c781 d3bd 7570 bf3d 88b9 f13d 5cc6 25be
00000360: 5479 2abd 3d26 07bd 0dfb 00bd 090e 02bd
00000370: a06f 21be 6daa 48bd 6652 743d ac51 9d3c
00000380: bf44 0ebe 4fe5 0c3e b025 24bd e521 26bd
00000390: 0fce 2b3e 4637 e63d 8c5c ca3d 949c e63d
000003a0: 1665 78bd 2363 39be d745 883d 4ece 1dbe
000003b0: 1142 0bbe fda1 febd cadd 8f3c d29c 44bd
000003c0: a3ae 0fbe b33f 063e ac34 853c c356 583d
000003d0: 0faa 00be 2e75 c5bd b623 80bd 5eec 803d
000003e0: 32ac 71be 00a7 97bd 2525 f23d dca9 a13d
000003f0: 0e02 c13b 0aeb a53d 0573 38bd 5bb0 073e

blocks.0.fcn_layer.bias f4 [32]
-0.10952904 -7.224955e-05 -0.01662684 0.08914094 0.05614634 -0.15372968 0.12062724 0.014163478
-0.028505405 0.0344327 0.020127246 -0.08775729 -0.17933147 0.009131546 -0.051114004 0.122187264
0.072173186 0.04701901 0.027198628 -0.036761455 -0.08770196 0.081542626 0.16679306 -0.089537635
-0.07746783 0.024804901 0.094028644 -0.01395197 -0.13483472 -0.084768206 0.073712125 0.044130154
00000000: c350 e0bd af84 97b8 0335 88bc 868f b63d
00000010: b4f9 653d 506b 1dbe 6a0b f73d ef0d 683c
00000020: 2b84 e9bc 4e09 0d3d e5e1 a43c 18ba b3bd
00000030: aba2 37be 7b9c 153c eb5c 51bd 513d fa3d
00000040: 89cf 933d 0197 403d a8cf de3c 2e93 16bd
00000050: 169d b3bd d2ff a63d cdcb 2a3e 825f b7bd
00000060: 74a7 9ebd a633 cb3c 1792 c03d ce96 64bc
00000070: 1d12 0abe f49a adbd 62f6 963d d2c1 343d

blocks.0.layer_norm.weight f4 [32]
1.0270619 1.1003609 1.2718534 0.96736777 1.2543083 1.002743 1.0081036 1.3847142
1.0743643 1.0991626 1.0210757 1.2155387 0.99621457 1.1286291 0.9926501 1.0457432
1.2518582 1.0901572 1.2514927 1.0830367 0.9992234 1.0860994 1.1077075 0.9778727
1.2813766 1.0131232 1.2726114 1.2326307 1.1096288 1.0105207 1.3203175 0.9986882
00000000: c476 833f a0d8 8c3f 18cc a23f 6aa5 773f
00000010: 2d8d a03f e259 803f 8a09 813f 513e b13f
00000020: c584 893f 5cb1 8c3f 9cb2 823f c696 9b3f
00000030: eb07 7f3f eb76 903f 511e 7e3f eada 853f
00000040: e43c a03f 458a 8b3f ea30 a03f f2a0 8a3f
00000050: 1bcd 7f3f 4e05 8b3f 5cc9 8d3f de55 7a3f
00000060: 2604 a43f 05ae 813f eee4 a23f d8c6 9d3f
00000070: 5108 8e3f be58 813f 2a00 a93f 08aa 7f3f

blocks.0.layer_norm.bias f4 [32]
0.007954144 0.06537843 0.2616463 -0.011211659 0.25549772 0.01045867 -0.004280676 0.31134018
0.081373125 0.054779217 0.0106088305 0.24198325 -0.0072000073 0.082291655 -0.015196029 0.015365759
0.2536858 0.047643766 0.24230047 0.05535904 -0.00095004274 0.080346294 0.07681732 -0.021081788
0.25838882 0.02647409 0.2698755 0.2513735 0.09425364 0.002667779 0.29128006 -0.00460917
00000000: 1952 023c 20e5 853d 81f6 853e 1bb1 37bc
00000010: 99d0 823e d75a 2b3c ea44 8cbb fb67 9f3e
00000020: f4a6 a63d 2c60 603d a9d0 2d3c 75ca 773e
00000030: 0aee ebbb 8788 a83d c4f8 78bc aac0 7b3c
00000040: 1be3 813e 1c26 433d 9d1d 783e 29c0 623d
00000050: 4a0c 79ba 998c a43d 6652 9d3d b7b3 acbc
00000060: 8a4b 843e 31e0 d83c 1f2d 8a3e 07b4 803e
00000070: 0d08 c13d e8d5 2e3b a922 953e 8508 97bb

last_layer.weight f4 [1, 32]
0.18483336 0.23911673 -0.32816082 -0.09364679 -0.3280498 -0.087736286 0.038478654 -0.34822074
0.093251735 0.17307499 0.045139186 -0.3227032 0.10075866 0.11948832 0.012714146 0.20073046
-0.3273453 0.0790239 -0.39643326 0.109909855 -0.009630395 0.11416509 0.1792568 -0.12664779
-0.3623756 -0.032232575 -0.29087168 -0.29817188 0.10223178 0.06224837 -0.28463715 0.12094484
00000000: f544 3d3e 04db 743e b204 a8be e3c9 bfbd
00000010: 25f6 a7be 15af b3bd cb9b 1d3d fd49 b2be
00000020: c4fa be3d 923a 313e dee3 383d 5b39 a5be
00000030: 8e5a ce3d 4bb6 f43d fe4e 503c 498c 4d3e
00000040: ce99 a7be 48d7 a13d 4df9 cabe 6b18 e13d
00000050: cec8 1dbc 63cf e93d 188f 373e f5af 01be
00000060: 4b89 b9be 4e06 04bd 22ed 94be fca9 98be
00000070: e55e d13d 26f8 7e3d f6bb 91be eeb1 f73d
