wyoming/oww-models/munibot.onnx (onnx, 206810 bytes, 9 tensors)

layer1.weight f4 [32, 1536]
0.045669805 0.0266964 0.014190879 -0.022131983 0.02269309 0.02112573 -0.018692289 0.00503937
-0.031048127 -0.028879536 -0.0122400485 0.018673643 0.008324006 0.0041471045 -0.028247047 0.0014937469
-0.01897513 0.022004437 0.00484076 0.0093940105 -0.010531474 0.014921634 0.010625775 -0.0075844266
0.022521108 0.031131158 -0.02141784 -0.023177095 -0.029481106 0.016435228 -0.008446546 0.019403988
-0.022176718 -0.03238428 -0.020643974 -0.00044478083 0.022794079 -0.030163258 0.0229973 0.0040173144
0.0052521224 0.0020556855 0.014013112 0.017902512 -0.004357211 -0.025786372 -0.019994827 -0.014665722
-0.01881373 0.060383614 0.006564133 0.0021293026 -0.035830554 0.067984745 0.0030118972 0.0075268066
0.038478695 0.0034808444 -0.019311946 -0.0055603045 0.03127954 -0.019296937 0.030022083 0.009308364
-0.006411373 0.03995187 0.015064445 0.004201837 -0.0012878311 0.020859195 -0.03243219 0.01363194
0.034702823 -0.00365514 0.025691403 0.018508231 0.05146277 0.00073884777 0.006450882 -0.00744024
-0.024620235 -0.0047201416 0.018118087 -0.01169477 0.016765641 -0.030107947 -0.041446444 -0.015648559
0.028393045 0.017863894 -0.011251736 -0.009925141 0.023450354 0.016275106 0.01963474 -0.0010356774
-0.01389552 0.028147139 -0.002986758 -0.030891363 0.023124985 -0.02164814 -0.018957729 -0.011949685
-0.029814886 -0.025426785 0.004562758 0.0051165572 -0.023232857 -0.005968395 -0.02476965 -0.012792999
-0.012871579 0.037861828 -0.017839544 0.010755169 -0.00074214314 0.02307898 -0.0023351656 -0.05561355
0.030424615 0.020288624 -0.019826705 -0.0013803618 -0.023205912 0.02045589 -0.0006539311 -0.014048152
-0.021539696 -0.020209873 -0.0135510005 0.0098366765 -0.025873864 -0.02061853 -0.025238732 -0.01611098
-0.0031228561 0.012054842 0.0146775795 -0.022781637 -0.035558388 -0.01889843 0.021088941 -0.01630926
-0.03273517 0.030774245 0.031411845 0.010457181 -0.0063030645 0.008662042 -0.011774223 0.0011818827
0.017912602 -0.02474515 0.001804433 -0.0057121203 0.035700858 -0.0038037724 0.020679621 -0.030115876
9.830223e-05 0.03516841 0.018918525 -0.028056428 0.017752804 0.006278154 -0.027908085 0.01459741
0.015637673 -0.0008153361 0.00061836356 0.023732593 0.03497091 0.017653922 0.006748106 -0.004412528
0.021987598 -0.019746501 -0.0081188725 -0.0026394264 -0.0014771239 -0.03226256 0.0005636556 -0.037899207
0.04704687 0.016066937 0.020244462 0.005523786 0.011001724 0.008280395 -0.0048275865 -0.0078072366
0.00029284644 0.021351706 -0.03680899 -0.02350596 0.0036264306 0.02424536 0.02866682 -0.01712403
-0.012774488 0.013391176 -0.0075946436 -0.0049316296 -0.020496055 -0.004085188 -0.002824002 -0.020765066
2.9206247e-05 0.026090449 -0.009039837 -0.033977576 -0.033120684 -0.0010251488 0.0263616 0.008940089
-0.014958104 0.007818473 0.02325558 0.007273414 0.047050245 0.004004853 -0.00019796743 -0.017244443
-0.0021868658 -0.024719262 -0.02559486 0.009083747 -0.012263542 -0.029632958 0.024708169 -0.017020902
0.019707771 -0.029143693 -0.01637468 0.013613546 -0.020138886 -0.020694552 -0.026421294 -0.006707039
0.010522779 0.03389851 0.005802372 -0.0011510915 -0.029953085 0.018888617 0.017225865 0.02100201
0.010373397 -0.008321768 0.0035334227 -0.0037098064 0.005776775 -0.012856988 0.018940905 0.019444894
00000000: 4310 3b3d 69b2 da3c dc80 683c 224e b5bc
00000010: dce6 b93c de0f ad3c 9220 99bc 4d21 a53b
00000020: a458 febc c794 ecbc 7c8a 48bc 78f9 983c
00000030: 6961 083c 6fe4 873b 5a66 e7bc d4c9 c33a
00000040: bb71 9bbc a642 b43c 3d9f 9e3b 56e9 193c
00000050: 348c 2cbc df79 743c bb17 2e3c c886 f8bb
00000060: 307e b83c c506 ff3c 7774 afbc e4dd bdbc
00000070: 5c82 f1bc 2ca3 863c 6263 0abc 1df5 9e3c
00000080: f3ab b5bc 61a5 04bd 8d1d a9bc 7931 e9b9
00000090: a6ba ba3c f018 f7bc d564 bc3c ada3 833b
000000a0: ff19 ac3b aeb8 063b 4097 653c 4aa8 923c
000000b0: efc6 8ebb f13d d3bc 31cc a3bc 7f48 70bc
000000c0: 401f 9abc cf54 773d f017 d73b c58b 0b3b
000000d0: 0fc3 12bd 963b 8b3d 4063 453b 6ea3 f63b
000000e0: d69b 1d3d e11e 643b 1634 9ebc 3733 b6bb
000000f0: fa1e 003d 9c14 9ebc dff0 f53c 1c82 183c
00000100: 7f16 d2bb 92a4 233d ddd0 763c 90af 893b
00000110: 71cc a8ba e7e0 aa3c 9ed7 04bd 8058 5f3c
00000120: 8c24 0e3d 138b 6fbb c776 d23c 939e 973c
00000130: a0ca 523d 3caf 413a ec61 d33b 42cd f3bb
00000140: 60b0 c9bc 6bab 9abb 626c 943c 6c9b 3fbc
00000150: 1958 893c f1a4 f6bc bfc3 29bd 6831 80bc
00000160: 8898 e83c 4d57 923c 3459 38bc 0f9d 22bc
00000170: f51a c03c 5f53 853c 09d9 a03c 91bf 87ba
00000180: 09aa 63bc d494 e63c 7cbd 43bb e20f fdbc
00000190: 9c70 bd3c 7157 b1bc 3d4d 9bbc 9dc8 43bc
000001a0: 593e f4bc d54b d0bc 3083 953b cba8 a73b
000001b0: d552 bebc 8792 c3bb b9e9 cabc ba99 51bc
000001c0: 51e3 52bc 0115 1b3d 3c24 92bc 7336 303c
000001d0: 628c 42ba 2110 bd3c 9409 19bb 09cb 63bd
000001e0: 0b3d f93c 5434 a63c 9d6b a2bc 42ed b4ba
000001f0: 531a bebc 1c93 a73c 936c 2bba 382a 66bc
00000200: 0474 b0bc 2d8f a5bc 0405 5ebc 032a 213c
00000210: 6df5 d3bc 31e8 a8bc 75c1 cebc 2dfb 83bc
00000220: d5a8 4cbb ac81 453c 3b7a 703c 8ea0 babc
00000230: aca5 11bd e1d0 9abc b7c2 ac3c ff9a 85bc
00000240: 5015 06bd 451a fc3c b5a9 003d 9954 2b3c
00000250: f089 cebb 3deb 0d3c ace8 40bc 67e9 9a3a
00000260: 73bd 923c 57b6 cabc b982 ec3a bd2c bbbb
00000270: 103b 123d b648 79bb 4f68 a93c 92b5 f6bc
00000280: 9c27 ce38 c00c 103d 06fb 9a3c 98d6 e5bc
00000290: 546e 913c f9b8 cd3b 7f9f e4bc fa29 6f3c
000002a0: 941a 803c 48bc 55ba ad19 223a db6a c23c
000002b0: a83d 0f3d f59e 903c 371f dd3b f896 90bb
000002c0: 561f b43c 6ac3 a1bc 0505 05bc 3afa 2cbb
000002d0: 0e9c c1ba bf25 04bd 49c2 133a 333c 1bbd
000002e0: 38b4 403d cf9e 833c b7d7 a53c e000 b53b
000002f0: 9340 343c 7eaa 073c bb30 9ebb d9d3 ffbb
00000300: 2f89 9939 c6e9 ae3c 06c5 16bd 928f c0bc
00000310: 69a9 6d3b 359e c63c aed6 ea3c b247 8cbc
00000320: 164c 51bc aa66 5b3c 7ddc f8bb 8299 a1bb
00000330: 58e7 a7bc 0add 85bb e412 39bb 801b aabc
00000340: f0ff f437 a3bb d53c d31b 14bc 122c 0bbd
00000350: 8ea9 07bd 495e 86ba 48f4 d73c 7379 123c
00000360: d612 75bc 0d19 003c 7c82 be3c d255 ee3b
00000370: c2b7 403d 243b 833b 7a95 4fb9 3844 8dbc
00000380: 8551 0fbb 0d80 cabc 50ac d1bc ffd3 143c
00000390: 06ed 48bc d1c0 f2bc c968 ca3c 6b6f 8bbc
000003a0: 3172 a13c c1be eebc 3124 86bc 5a0b 5f3c
000003b0: 4efa a4bc 9f87 a9bc 7871 d8bc b9c6 dbbb
000003c0: bc67 2c3c 2ad9 0a3d d321 be3b 39e0 96ba
000003d0: 2c60 f5bc 4dbc 9a3c 421d 8d3c 680c ac3c
000003e0: 2ef5 293c 0658 08bc ff90 673b 3920 73bb
000003f0: 1a4b bd3b 1ea6 52bc f529 9b3c e64a 9f3c

layer1.bias f4 [32]
0.011930908 -0.008571291 0.011071492 0.006198762 -0.013548259 -0.003915268 0.011737253 0.0014884565
0.0035326513 0.019423492 -0.023159076 0.025864275 -0.00827784 0.014203542 -0.021609517 -0.02526915
0.02388715 -0.0022886042 0.005184046 -0.018978884 0.016095174 -0.0055921557 0.009806674 0.01566143
-0.022264533 -0.000627859 0.0288928 -0.007772561 -0.014942801 0.024196802 0.014151068 -0.0062054433
00000000: db79 433c 9a6e 0cbc 3465 353c fc1e cb3b
00000010: 84f9 5dbc a64b 80bb 9b4d 403c 5018 c33a
00000020: 0e84 673b 041e 9f3c 1ab8 bdbc 51e1 d33c
00000030: c79f 07bc f9b5 683c 7106 b1bc 4001 cfbc
00000040: fcae c33c 68fc 15bb eede a93b 9b79 9bbc
00000050: 07da 833c 673e b7bb 2cac 203c 664c 803c
00000060: 1c64 b6bc e796 24ba 98b0 ec3c f8b0 febb
00000070: a6d2 74bc 5f38 c63c e2d9 673c 0857 cbbb

layernorm1.weight f4 [32]
0.99672246 0.98106927 1.0014286 0.98310256 1.0305935 0.99747616 1.0161794 1.0050188
1.0072098 0.99820006 0.98852384 1.0030572 0.99098283 0.96822464 0.99638647 0.99561733
0.99084276 1.0075908 0.96981144 0.996998 0.99414945 1.0420393 1.0139325 1.0170286
0.9843023 0.99181294 1.0225672 1.0372266 0.99007344 0.99975604 0.9950424 0.9893412
00000000: 3429 7f3f 5b27 7b3f d02e 803f 9cac 7b3f
00000010: 7dea 833f 995a 7f3f 2b12 823f 75a4 803f
00000020: 40ec 803f 0a8a 7f3f e60f 7d3f 2e64 803f
00000030: 0db1 7d3f 92dd 773f 2f13 7f3f c7e0 7e3f
00000040: dfa7 7d3f bcf8 803f 9045 783f 433b 7f3f
00000050: 9480 7e3f 8b61 853f 8ac8 813f fe2d 823f
00000060: 3cfb 7b3f 74e7 7d3f 7be3 823f d7c3 843f
00000070: 7475 7d3f 03f0 7f3f 19bb 7e3f 7745 7d3f

layernorm1.bias f4 [32]
0.007458694 0.011502372 0.028827777 -0.025037054 0.023015615 -0.010177235 0.010767945 -0.00045866575
0.011084074 -0.010990859 -0.0016185589 0.02164791 -0.017564105 0.012865982 -0.013627124 -0.016697388
-0.009248475 0.02762086 0.006299391 -0.016382614 -0.0010541431 0.024390584 0.0033167847 0.028598133
0.009438983 -0.0060673384 0.021048171 0.01855283 -0.011081137 -0.0031908413 -0.004130895 -0.0058704894
00000000: 0f68 f43b 7274 3c3c 3b28 ec3c 821a cdbc
00000010: 3e8b bc3c 6bbe 26bc 096c 303c 1379 f0b9
00000020: fa99 353c 0113 34bc d325 d4ba f556 b13c
00000030: 99e2 8fbc d7cb 523c 4d44 5fbc f6c8 88bc
00000040: ea86 17bc 2445 e23c 1f6b ce3b d534 86bc
00000050: 2c2b 8aba c3ce c73c 6a5e 593b a246 ea3c
00000060: f7a5 1a3c 86d0 c6bb 376d ac3c 1bfc 973c
00000070: a88d 35bc 6f1d 51bb 755c 87bb 3c5d c0bb

blocks.0.fcn_layer.weight f4 [32, 32]
-0.065088294 -0.08630963 0.12843277 -0.14894965 0.13793635 -0.09062821 0.1167094 0.09086054
-0.009534511 -0.17570859 -0.06183894 -0.061179534 0.10527572 -0.02206182 -0.073133506 -0.036014
0.09200148 0.09147928 -0.11742752 -0.004862595 -0.13520408 -0.13923348 -0.06131653 0.02895256
0.096793234 -0.0745732 0.21003927 0.10857089 0.09132661 -0.004581143 -0.12093258 -0.13895923
0.18473484 -0.19002661 0.019855555 0.14514337 0.058596455 -0.06932741 -0.09577591 0.03024575
-0.09005793 0.130328 0.18978988 0.13057348 0.17647359 -0.07052117 -0.12343658 -0.04284877
0.020611327 0.114489645 -0.05802638 0.06675201 0.106665544 -0.111242615 0.10985708 -0.014054851
-0.030712646 0.13641572 0.011677098 -0.14920495 -0.11367763 0.14213769 0.07187863 -0.100857325
-0.10473795 0.004114773 0.15371123 -0.042495452 -0.06896214 -0.04551619 0.019672442 0.008017394
-0.1043132 -0.098506406 0.16082749 0.086565934 0.14490902 -0.022238456 -0.056361273 0.028490452
0.01726666 0.0072899386 -0.09168483 0.07096889 0.015439842 -0.11743116 0.12756214 -0.1198022
-0.013876011 -0.13875031 -0.1283121 0.10459373 -0.15135033 -0.15850782 -0.059030097 0.075812295
0.013014374 0.15232661 0.16825482 -0.12574905 -0.1944703 0.011313237 0.11868266 0.15677734
-0.09894751 -0.0069326996 0.15485913 0.03878705 -0.111209795 0.021969704 0.011336134 -0.06801308
0.014831635 0.05165881 0.00637758 -0.018628977 0.049461685 -0.048447847 0.015336434 -0.047874685
0.13625656 -0.06379269 -0.105649866 -0.081885874 -0.106789626 0.049794894 0.0042786687 0.065696664
0.07746402 -0.016706508 0.056413956 0.07334986 0.06652765 -0.11156932 -0.13261783 0.07433868
0.16519517 0.15267645 0.14161986 0.0073620486 -0.054123223 0.0732662 -0.09862348 0.016204821
-0.14095569 -0.018211698 -0.013080547 0.08567586 -0.04876635 0.15677507 -0.19356047 -0.064607285
0.09706874 -0.044066966 0.117804416 -0.16148557 0.07194668 -0.13727295 -0.019694071 -0.09732729
-0.14231107 0.04195906 0.02836323 0.13027762 0.14797114 0.17962094 0.03686847 0.16266845
0.1513383 -0.075967886 0.1418608 -0.14775756 -0.05637431 0.12947871 -0.05055782 -0.048117977
0.1332804 -0.008892505 -0.046694867 0.023748694 0.082424276 0.15026657 0.059423838 0.0782758
-0.14516212 0.055395093 0.101127684 -0.124942005 -0.08065023 -0.06595817 -0.16149671 -0.12073321
0.05567528 0.13344443 0.12782711 -0.09362729 -0.21157745 -0.028172517 0.013789606 -0.028174013
-0.041672826 0.09078099 0.1517489 -0.05876516 0.0063905637 0.09635428 0.06936195 0.11466718
-0.01749765 0.07901691 0.071108975 -0.12227162 0.12512472 0.13210534 -0.057584204 0.012608552
-0.021766836 -0.16206582 -0.193703 -0.11519691 0.15132749 0.055093143 -0.14483616 -0.1146527
-0.048057258 0.0832309 -0.029486684 -0.09961425 -0.12507026 0.14073668 0.099076755 -0.011868732
-0.0669493 -0.01363479 -0.18460548 0.099151306 -0.08180578 0.13764894 -0.09515132 0.047982454
-0.054881196 -0.15372677 0.18590295 -0.10510834 -0.10202697 0.17293307 0.11079732 -0.15199134
-0.07526187 0.01431422 0.19041318 0.13561721 -0.010580479 -0.11533755 -0.11968464 -0.13575043
00000000: 034d 85bd 1ac3 b0bd e183 033e 4286 18be
00000010: 303f 0d3e 489b b9bd 5705 ef3d 1715 ba3d
00000020: a336 1cbc f4ec 33be d44a 7dbd 6497 7abd
00000030: cc9a d73d fdba b4bc 05c7 95bd 6b83 13bd
00000040: 466b bc3d 7d59 bb3d d77d f0bd 6756 9fbb
00000050: f072 0abe 3993 0ebe 0b27 7bbd eb2d ed3c
00000060: 883b c63d d5b9 98bd 8914 573e 6a5a de3d
00000070: 7209 bb3d 6a1d 96bb 80ab f7bd 544b 0ebe
00000080: 212b 3d3e 5696 42be 1ea8 a23c 77a0 143e
00000090: d602 703d 87fb 8dbd 2926 c4bd efc5 f73c
000000a0: 4b70 b8bd b474 053e 4758 423e 0eb5 053e
000000b0: 7eb5 343e 676d 90bd 51cc fcbd 3182 2fbd
000000c0: 16d9 a83c 8c79 ea3d 12ad 6dbd 47b5 883d
000000d0: 7773 da3d 2bd3 e3bd c0fc e03d 5146 66bc
000000e0: 1699 fbbc 90b0 0b3e 4d51 3f3c 2fc9 18be
000000f0: d1cf e8bd 8b8c 113e 1a35 933d 498e cebd
00000100: da80 d6bd 38d5 863b 7a66 1d3e b60f 2ebd
00000110: 063c 8dbd 2f6f 3abd 1a28 a13c 635b 033c
00000120: 29a2 d5bd babd c9bd f6af 243e 7b49 b13d
00000130: 0863 143e 6c2d b6bc 14db 66bd cf64 e93c
00000140: d072 8d3c 70e0 ee3b 42c5 bbbd 2358 913d
00000150: 64f7 7c3c bf7f f0bd a69f 023e db5a f5bd
00000160: 3558 63bc 9014 0ebe 3f64 03be 3d35 d63d
00000170: 95fb 1abe e04f 22be 8bc9 71bd 7a43 9b3d
00000180: 3e3a 553c 82fb 1b3e fe4a 2c3e 5cc4 00be
00000190: 3923 47be 285b 393c e50f f33d 3d8a 203e
000001a0: fea4 cabd b32b e3bb 6493 1e3e 2bdf 1e3d
000001b0: f6c1 e3bd cff9 b33c 31bb 393c 714a 8bbd
000001c0: 6300 733c 3098 533d 05fb d03b cc9b 98bc
000001d0: 5698 4a3d 4071 46bd ab45 7b3c 3f18 44bd
000001e0: d786 0b3e bea5 82bd f55e d8bd c8b3 a7bd
000001f0: 85b4 dabd bbf5 4b3d 1334 8c3b f98b 863d
00000200: 75a5 9e3d 16dc 88bc 5212 673d 7438 963d
00000210: a63f 883d 757e e4bd f8cc 07be e13e 983d
00000220: ec28 293e 3757 1c3e cc04 113e 573d f13b
00000230: 50b0 5dbd 970c 963d 1bfb c9bd f9bf 843c
00000240: b056 10be b330 95bc ca4f 56bc d376 af3d
00000250: 39bf 47bd a589 203e b734 46be d350 84bd
00000260: facb c63d 907f 34bd 7143 f13d 795c 25be
00000270: c858 933d 4891 0cbe 7655 a1bc 8853 c7bd
00000280: feb9 11be 43dd 2b3d 015a e83c 7f67 053e
00000290: bf85 173e 8dee 373e 6503 173d 8f92 263e
000002a0: 6df8 1a3e 0d95 9bbd f543 113e c24d 17be
000002b0: c0e8 66bd 1196 043e b715 4fbd 5b17 45bd
000002c0: a87a 083e dfb1 11bc 1e43 3fbd 9f8c c23c
000002d0: 0fce a83d 7bdf 193e 6966 733d 104f a03d
000002e0: 61a5 14be f7e5 623d 081c cf3d 98e1 ffbd
000002f0: f32b a5bd 1415 87bd 655f 25be f942 f7bd
00000300: c30b 643d a8a5 083e 1ce5 023e aabf bfbd
00000310: c2a7 58be 0dca e6bc cded 613c 30cd e6bc
00000320: 20b1 2abd 62eb b93d 1064 1b3e bdb3 70bd
00000330: ef67 d13b 6555 c53d a30d 8e3d a0d6 ea3d
00000340: 3b57 8fbc 9ed3 a13d 95a1 913d 8b69 fabd
00000350: b220 003e 9f46 073e 6add 6bbd 1a94 4e3c
00000360: 5d50 b2bc 95f4 25be 145a 46be 5cec ebbd
00000370: 98f5 1a3e 59a9 613d ee4f 14be 09cf eabd
00000380: b0d7 44bd f674 aa3d 0f8e f1bc 8e02 ccbd
00000390: 6b12 00be 471d 103e c1e8 ca3d 1275 42bc
000003a0: b71c 89bd 7464 5fbc 3809 3dbe d70f cb3d
000003b0: ca89 a7bd d8f3 0c3e b2de c2bd 4089 443d
000003c0: 1bcb 60bd 8d6a 1dbe 585d 3e3e 0b43 d7bd
000003d0: 84f3 d0bd 5e15 313e b5e9 e23d 9ea3 1bbe
000003e0: e522 9abd 3186 6a3c acfb 423e 3ddf 0a3e
000003f0: bf59 2dbc 1836 ecbd 381d f5bd 2902 0bbe

blocks.0.fcn_layer.bias f4 [32]
-0.14495124 0.0021401835 -0.09409687 -0.10839159 0.11959564 -0.0424308 -0.078503944 0.0037463726
0.1038625 0.09085699 0.110633954 0.11022103 0.1499525 -0.019358499 0.007274672 -0.004563025
0.12388097 -0.012222185 -0.07280385 0.048026025 0.08652931 -0.0023031293 -0.09960924 -0.07048277
-0.020509895 0.1594103 0.18373038 -0.0077421675 -0.019563297 -0.13218856 -0.0066086035 -0.045619976
00000000: 196e 14be 5242 0c3b dcb5 c0bd 69fc ddbd
00000010: 8fee f43d ebcb 2dbd adc6 a0bd b485 753b
00000020: ddb5 d43d 3b13 ba3d 0e94 e23d 90bb e13d
00000030: 268d 193e b795 9ebc 5f60 ee3b 6e85 95bb
00000040: 4eb5 fd3d 8f3f 48bc 2f1a 95bd f0b6 443d
00000050: 4736 b13d 19f0 16bb eeff cbbd 4559 90bd
00000060: 5e04 a8bc 743c 233e d123 3c3e 02b2 fdbb
00000070: 3543 a0bc 705c 07be fc8c d8bb 03dc 3abd

blocks.0.layer_norm.weight f4 [32]
1.2464666 1.045698 0.94621074 1.1098149 1.1920617 1.2081333 1.102804 1.2369217
0.99190754 1.0319071 1.0548304 1.04508 1.1933559 1.0493336 0.95475864 1.0845131
0.9953753 0.9707321 1.2111677 0.98445266 0.97201484 1.2123972 1.0522913 1.2042058
1.0108633 1.3339361 1.2986292 1.0357033 0.99885607 1.0676957 0.9872563 1.318035
00000000: 388c 9f3f 6fd9 853f de3a 723f 6a0e 8e3f
00000010: 7a95 983f 1da4 9a3f ae28 8d3f 7353 9e3f
00000020: a7ed 7d3f 8815 843f af04 873f 2ec5 853f
00000030: e3bf 983f 9050 863f 106b 743f 53d1 8a3f
00000040: ead0 7e3f e681 783f 8b07 9b3f 1705 7c3f
00000050: f7d5 783f d52f 9b3f 7bb1 863f 6a23 9a3f
00000060: f863 813f 6bbe aa3f 7b39 a63f ed91 843f
00000070: 08b5 7f3f 41aa 883f d4bc 7c3f 5fb5 a83f

blocks.0.layer_norm.bias f4 [32]
0.2346757 0.031858444 -0.053778477 0.08609596 0.21041185 0.22072616 0.041968398 0.22187093
-0.019658644 0.038146656 0.03384 0.027930357 0.21121319 0.04919497 -0.051678494 0.066205375
-0.009003234 -0.036515817 0.22302794 -0.010307402 -0.02839992 0.21417618 0.03607906 0.21464074
0.010289753 0.25965372 0.24393903 0.025770606 -1.1525756e-05 0.061169963 -0.009263756 0.25625062
00000000: d44e 703e 007e 023d d246 5cbd 1453 b03d
00000010: 3476 573e 0a06 623e 0ee7 2b3d 2232 633e
00000020: 2a0b a1bc ab3f 1c3d d09b 0a3d 34ce e43c
00000030: 4548 583e aa80 493d d4ac 53bd af96 873d
00000040: 4d82 13bc 9c91 15bd 7061 643e 61e0 28bc
00000050: f3a6 e8bc 0051 5b3e a3c7 133d c8ca 5b3e
00000060: 5a96 283c 55f1 843e 27cb 793e e11c d33c
00000070: bf5e 41b7 5b8d 7a3d 02c7 17bc 4833 833e

last_layer.weight f4 [1, 32]
-0.30053955 0.20724116 -0.025084542 0.22408022 -0.3337814 -0.31233215 0.19077067 -0.35899913
-0.07651272 -0.039752796 0.16282937 0.21278456 -0.34818035 0.054881085 -0.035085257 0.18563756
0.03587103 -0.046999205 -0.2995189 0.03484968 -0.09391941 -0.35602483 0.06458673 -0.3382575
0.13533178 -0.3391446 -0.35086071 0.081589244 0.007269283 0.21480511 -0.005293331 -0.33194587
00000000: 52e0 99be 0737 543e 197e cdbc 4975 653e
00000010: 65e5 aabe 00ea 9fbe 6359 433e bcce b7be
00000020: b3b2 9cbd d4d3 22bd bebc 263e 32e4 593e
00000030: b244 b2be fdca 603d 8fb5 0fbd c617 3e3e
00000040: 80ed 123d 3d82 40bd 8b5a 99be 8abe 0e3d
00000050: d258 c0bd e348 b6be 0c46 843d 1630 adbe
00000060: 6a94 0a3e 5ca4 adbe 04a4 b3be 4318 a73d
00000070: 2a33 ee3b dff5 5b3e ae73 adbb cff4 a9be
